_doubledqn_agent.Agent object at 0x7f3cf2185160__checkpoint.pth (torch_old, 28333 bytes, 6 tensors)

fc1.weight f4 [64, 37]
0	0xbd9dde50	-0.07708418
1	0xbe3a1508	-0.18172085
2	0xbe2a0218	-0.16602361
3	0x3e01dad0	0.12681127
4	0x3ea6b6a9	0.32561234
5	0xbcba164c	-0.02271571
6	0xbdeeb3b2	-0.11655368
7	0x3da50b2a	0.0805877
8	0xbcaad764	-0.02085466
9	0xbe4676f1	-0.1938131
10	0xbd1f617c	-0.038911328
11	0xbbcf3d2d	-0.0063244314
12	0xbe89727b	-0.26845154
13	0xbe8626c2	-0.26201445
14	0x3cc94d4d	0.024572993
15	0x3de35667	0.11100464
16	0xbe8c4b9c	-0.27401435
17	0x3d76bf45	0.060241003
18	0xbe1af847	-0.15133773
19	0x3d321d14	0.043484762
20	0x3e1e6efd	0.15472026
21	0x3ddc9e4a	0.10772379
22	0xbbf8634f	-0.007580198
23	0xbd5fc4ac	-0.05463092
24	0x3dba6ce2	0.09102799
25	0x3dec344d	0.11533413
26	0xbe7f2d3b	-0.24919598
27	0x3dee4d20	0.11635804
28	0xbe6b3d6d	-0.22972651
29	0xbdb06d0c	-0.08614549
30	0x3e03668f	0.12832092
31	0xbdb8003d	-0.089844204
32	0xbe3a1a60	-0.18174124
33	0xbee35b64	-0.44405663
34	0xbede5e88	-0.43431497
35	0xbe38460b	-0.1799547
36	0xbdadbfae	-0.084838256
37	0xbcea48f4	-0.02859924
38	0x3e143937	0.1447495
39	0xbd618b8d	-0.055064727
40	0x3e72bc35	0.23704608
41	0x3db054df	0.08609938
42	0xbe863b71	-0.26217225
43	0xbd427def	-0.04748338
44	0xbdb5d052	-0.088776246
45	0x3e9073f3	0.28213462
46	0x3e07e879	0.13272275
47	0x3bc4d0eb	0.0060063503
48	0xbd3890b4	-0.045059875
49	0xbd42c418	-0.04755029
50	0x3e869ecd	0.2629303
51	0x3df5e5eb	0.12006744
52	0xbcfaadf6	-0.03060053
53	0xbcc527f9	-0.024066912
54	0xbcfbee88	-0.030753389
55	0x3e0a99d7	0.13535248
56	0xbe438ac6	-0.19095907
57	0xbddb2d9b	-0.10702058
58	0xbe240e76	-0.16021141
59	0xbe2a5259	-0.16632976
60	0x3dab0cc5	0.08352045
61	0x3e8064ab	0.25076804
62	0x3e72bdd1	0.23705222
63	0x3cc41871	0.023937436
64	0xbe439994	-0.19101554
65	0xbe5e5fb4	-0.21716195
66	0xbef12e6b	-0.47105727
67	0xbe943acf	-0.28951117
68	0x3e63afe9	0.22235073
69	0x3e12e832	0.14346388
70	0x3d9efad8	0.077626884
71	0x3e8cfe75	0.27537885
72	0x3da79e69	0.08184511
73	0xba8a4144	-0.0010548015
74	0x3f172c42	0.5905191
75	0xbed3bcc2	-0.41354948
76	0xbd4f8f32	-0.05067367
77	0xbebdbb80	-0.37057114
78	0xbfc97fc2	-1.5742114
79	0x3d76620c	0.0601521
80	0xbd424e8c	-0.04743819
81	0x3e055d16	0.1302379
82	0x3de8259c	0.113352984
83	0x3d74049a	0.0595747
84	0x3dae69e0	0.08516288
85	0xbc836f32	-0.016044233
86	0x3da5c821	0.08094812
87	0x3e0c5bdf	0.13706921
88	0xbe0d70de	-0.13812587
89	0x3e172e35	0.1476372
90	0x3d664fa7	0.056228306
91	0xbd7ca5b3	-0.06168146
92	0x3e653b89	0.22385992
93	0x3e6a696d	0.22891779
94	0x3c9073f2	0.017633412
95	0x3d2af564	0.04173793
96	0x3dab0510	0.08350575
97	0xbdc63a23	-0.096790574
98	0xbe1406f1	-0.14455773
99	0x3d4ea7d9	0.05045304
100	0x3e7a52e4	0.24445683
101	0x3dcaeb72	0.09908189
102	0x3d206eb9	0.039168093
103	0xbdea6835	-0.11445657
104	0xbd3d011a	-0.04614363
105	0x3cced3b9	0.025247442
106	0x3d2bea79	0.041971657
107	0xbcb718b1	-0.022350641
108	0xbd2a6be1	-0.041606788
109	0x3bdbb63e	0.0067050746
110	0xbb78a788	-0.0037941653
111	0x3ef290b4	0.47376025
112	0xbf208c4c	-0.62714076
113	0xbf183ac2	-0.5946466
114	0xbf0050c3	-0.5012323
115	0xc0221967	-2.5328004
116	0x3d3e78d4	0.04650195
117	0x3d8c0fa6	0.06838922
118	0x3d3fffbc	0.046874747
119	0x3cb77b19	0.022397565
120	0x3d48cb5a	0.049022056
121	0xbcda4c00	-0.026647568
122	0x3d12c1a3	0.035829198
123	0x3d501d80	0.050809383
124	0x3b60a96f	0.0034280678
125	0x3df56685	0.11982445
126	0xbe0e2e44	-0.13884836
127	0xbb9a3370	-0.004705839
128	0x3bb8f0e2	0.00564395
129	0x3d8807bc	0.066421
130	0x3d1f6637	0.03891584
131	0xbcb54cb3	-0.0221313
132	0xbc9fa013	-0.019485509
133	0xba7568d9	-0.0009361632
134	0x3d41cea2	0.0473162
135	0x3d8f92a6	0.07010393
136	0x3cba6288	0.022752061
137	0xbc5008d7	-0.01269742
138	0x3da1e6ab	0.079053245
139	0x3e2fbdd5	0.17162259
140	0x3e4a4d66	0.19756088
141	0x3d457a11	0.048212115
142	0x3de70c27	0.11281615
143	0x3d9f2789	0.077712126
144	0x3dcf542e	0.10123478
145	0x3bb2cef1	0.0054567982
146	0xbc2a2221	-0.0103841135
147	0x3b097abe	0.00209777
148	0x3d9ad77f	0.07560634
149	0xbed4408b	-0.41455492
150	0xbd7080e4	-0.05871667
151	0xbe885de1	-0.26634124
152	0xbecc4400	-0.3989563
153	0x3c3850ae	0.011249704
154	0x3e4ed820	0.20199633
155	0xbc58ae6b	-0.013225178
156	0xbd15906f	-0.036514696
157	0x3d682321	0.056674127
158	0xbd04c1bc	-0.032411322
159	0x3d9ed775	0.07755939
160	0xbd63e696	-0.055639826
161	0xbde7082d	-0.11280856
162	0xbe3d10b3	-0.18463401
163	0xbdfd6e1c	-0.12374517
164	0x3d927f2b	0.071531616
165	0xbe1fc72a	-0.15603319
166	0xbc8d292d	-0.017231548
167	0x3e24b7cc	0.16085738
168	0x3c231a1b	0.0099549545
169	0x3d6ef895	0.058342535
170	0x3bdf1274	0.0068076197
171	0xbee9062a	-0.45512515
172	0x3e0ab999	0.13547362
173	0xbb3c8aeb	-0.0028769325
174	0x3c1f2fc3	0.009715977
175	0x3ddd0c3b	0.107933484
176	0xbcc83a91	-0.02444199
177	0xbd81c0ab	-0.063355766
178	0x3e20f089	0.15716757
179	0xbeba9dc9	-0.36448506
180	0xbe92fae6	-0.28707045
181	0x3efc13c0	0.49233818
182	0x3e9223fc	0.2854308
183	0x3d8c0f99	0.068389125
184	0xbbc4a4d8	-0.006001096
185	0xbdbb156d	-0.09134946
186	0xbbe8ccfa	-0.0071045132
187	0x3b14170e	0.002259675
188	0x3d0d5067	0.034500506
189	0x3b531fe6	0.0032215058
190	0x3ed20d96	0.4102599
191	0x3d47130d	0.048602153
192	0xbf2798da	-0.6546761
193	0xbec5f899	-0.38666227
194	0xbfe24260	-1.7676506
195	0xbcb41c77	-0.02198623
196	0x3b924972	0.004464322
197	0xbd9c2d1b	-0.07625791
198	0xbc4a126e	-0.012333496
199	0x3e18a80e	0.14907858
200	0xbdb5fac6	-0.08885722
201	0x3d8cc88b	0.06874188
202	0xbdd3ef23	-0.10348346
203	0x3e052671	0.13002945
204	0x3e3b807d	0.18310733
205	0x3d99564f	0.07487165
206	0x3d7271f5	0.05919071
207	0x3dd0f2c7	0.10202556
208	0x3e39084d	0.18069573
209	0xbcad0f42	-0.02112544
210	0xbd83450d	-0.06409655
211	0x3d342b8f	0.043986853
212	0x3d7c8476	0.061649762
213	0x3e43f1bb	0.19135182
214	0x3e40d856	0.18832526
215	0x3c21994f	0.009863212
216	0xbd757ed3	-0.059935402
217	0xbd1189ae	-0.035531692
218	0x3dbe8178	0.09302038
219	0x3de2fbbe	0.11083172
220	0xbca597dd	-0.020214016
221	0x3c49752d	0.012296003
222	0x3df58d6f	0.11989867
223	0xbe8291a4	-0.2550174
224	0xbe66b342	-0.22529319
225	0x3db7c3f5	0.08972923
226	0xbe82b7cf	-0.2553086
227	0xbf121903	-0.57069415
228	0xbd9b6690	-0.075879216
229	0x3e2d39ba	0.16916552
230	0xbda15f8e	-0.07879554
231	0x3e0ce758	0.13760126
232	0xbeb9438c	-0.36184347
233	0x3e7e0df7	0.24810015
234	0x3e66c8f7	0.225376
235	0xbd355c61	-0.044277553
236	0xbcd3370a	-0.02578308
237	0x3dbf43f8	0.09339136
238	0xbef85b21	-0.48507026
239	0xbdb1f2d0	-0.08688891
240	0xbdbde4fb	-0.0927219
241	0x3e6801ff	0.22657011
242	0x3e788b81	0.24271967
243	0xbe0b5571	-0.13606812
244	0xbe4f3354	-0.20234424
245	0xbe418036	-0.18896565
246	0xbdc77a12	-0.0974008
247	0xbdf5aa3e	-0.11995362
248	0x3dd10a23	0.102070116
249	0xbd48d0cf	-0.04902726
250	0xbe9ef56b	-0.31046614
251	0x3de7805c	0.113037795
252	0xbe046b6c	-0.12931603
253	0x3e4ea06d	0.20178385
254	0xbdb53121	-0.08847261
255	0xbe7e3c8f	-0.24827789

fc1.bias f4 [64]
0	0x3dd8d9cb	0.10588416
1	0xbdcf4c1b	-0.10121938
2	0xbce108f4	-0.02747009
3	0xbd6a569c	-0.057211503
4	0x3de8a77e	0.113600716
5	0xbb7c7358	-0.0038520899
6	0xbe047eda	-0.12939015
7	0xb9c2b3e4	-0.00037136592
8	0x3d6187ac	0.055061027
9	0xbe2beb7a	-0.16789046
10	0x3dac54ae	0.08414589
11	0x3e417c0e	0.1889498
12	0x3d30d746	0.04317405
13	0x3d85a198	0.06524962
14	0x3dc61fdb	0.09674045
15	0xbd6edfef	-0.05831903
16	0x3e5632cc	0.20917815
17	0x3e2fcc06	0.17167673
18	0xbd4b1ea1	-0.049589757
19	0xbe273343	-0.16328149
20	0xbe149ad7	-0.14512192
21	0x3d010791	0.031501357
22	0x3d9aab70	0.0755223
23	0xbda80a5f	-0.08205103
24	0xbee61878	-0.44940543
25	0x3dcacf91	0.099028714
26	0x3d7e3ced	0.062069822
27	0xbe2734e6	-0.16328773
28	0x3e465aa0	0.19370508
29	0x3dd64ab3	0.104634665
30	0xbd607968	-0.054803282
31	0xbcb6f5f6	-0.02233408
32	0x3dc29fe9	0.09503157
33	0x3d5c092f	0.053719696
34	0xbdbfbae8	-0.093618214
35	0x3e0533df	0.13008069
36	0xbdecd93e	-0.11564873
37	0xbd2320c4	-0.03982617
38	0x3d3418cc	0.04396896
39	0xbdfab540	-0.12241602
40	0xbdb09a21	-0.08623148
41	0x3b97061f	0.004608884
42	0xbd6a8082	-0.05725146
43	0x3cb67bb6	0.022275787
44	0x3ae35cb2	0.0017346351
45	0xbd94ff07	-0.07275205
46	0xbdd6ba32	-0.10484733
47	0xbdabc530	-0.0838722
48	0xbe7a2759	-0.24429072
49	0x3df1f7e4	0.118148595
50	0xbda7562c	-0.08170733
51	0x3e130661	0.14357902
52	0xbc8a5f57	-0.016891165
53	0xbda96f12	-0.08273138
54	0xbdc251e2	-0.09488274
55	0x3bd261df	0.0064203585
56	0x3dc38cb4	0.09548321
57	0x3d0bae86	0.034101985
58	0xbe747490	-0.2387259
59	0xbddd261e	-0.10798286
60	0x3e2a3dce	0.16625139
61	0x3dac7409	0.084205694
62	0x3bb19b0e	0.0054200953
63	0x3c9f4345	0.019441256

fc2.weight f4 [64, 64]
0	0x3dc34f6b	0.09536632
1	0x3d517907	0.05114081
2	0x3dc97c65	0.098381795
3	0x3e63fc14	0.22264129
4	0x3d30ce14	0.04316528
5	0xbdfcb485	-0.12339119
6	0xbe90bd31	-0.28269342
7	0xbeb836d9	-0.35979345
8	0x3d4369f5	0.04770847
9	0x3dc28569	0.09498102
10	0x3dcd3ed1	0.10021747
11	0x3e9aef9f	0.3026094
12	0x3e159775	0.14608558
13	0x3e11d321	0.14240696
14	0xbd29e6c7	-0.041479852
15	0x3e023b1f	0.12717865
16	0xbd9ae438	-0.075630605
17	0xbdcb850b	-0.09937485
18	0xbf1ee04b	-0.62060994
19	0xbe75a378	-0.2398814
20	0xbe29e259	-0.16590251
21	0x3b0ecf57	0.0021791065
22	0x3e80f826	0.25189322
23	0xbe054137	-0.13013159
24	0x3d9da313	0.076971196
25	0xbe11aff4	-0.14227277
26	0xbf1f2b96	-0.6217588
27	0x3c19fc17	0.009398482
28	0x3d231fe8	0.03982535
29	0xbe9e2e41	-0.30894664
30	0xbddad9e2	-0.10686089
31	0xbe2f4fbb	-0.17120259
32	0x3dc63732	0.096784964
33	0xbe12c451	-0.14332701
34	0x3e0d0416	0.1377109
35	0xbd969623	-0.07352855
36	0xbe0d339d	-0.1378922
37	0xbd23f56a	-0.040028967
38	0x3cf7d4fd	0.030252928
39	0xbd868ba6	-0.065696046
40	0x3dc01be8	0.09380323
41	0xbee3f1cb	-0.4452041
42	0xbb486727	-0.0030579062
43	0xbe0f077a	-0.13967696
44	0xbe83195b	-0.25605282
45	0xbdd746ab	-0.10511526
46	0x3ca3f479	0.020014035
47	0x3e8e4b5c	0.2779187
48	0xbed8079d	-0.42193308
49	0xbee143a1	-0.4399691
50	0xbd5009b7	-0.050790515
51	0xbe4606b5	-0.19338496
52	0x3d2fee38	0.042951792
53	0xbe8d78b8	-0.27631164
54	0x3cee0d43	0.029059058
55	0x3e30892b	0.17239825
56	0x3cc14a9c	0.023595147
57	0xbe158a3b	-0.14603512
58	0xbd50e613	-0.051000666
59	0xbe562656	-0.20913061
60	0x3d209413	0.039203715
61	0x3dfbde35	0.12298242
62	0x3d2aa6c5	0.04166295
63	0xbe3706bd	-0.17873664
64	0xbd5a01d7	-0.05322441
65	0xbd58e1cf	-0.052949723
66	0xbda07349	-0.07834489
67	0xbdc07d8e	-0.09398948
68	0x3dacb2e4	0.08432558
69	0x3e187656	0.14888892
70	0x3e461647	0.19344436
71	0xbd9910e3	-0.07473924
72	0xbc795e33	-0.015220213
73	0xbd6e5db5	-0.058194835
74	0xbcc9031a	-0.024537612
75	0x3e7661d1	0.24060751
76	0x3dc5edae	0.096644744
77	0x3d2a3aa7	0.04155984
78	0xbe8ca521	-0.27469733
79	0x3c6a2100	0.014290094
80	0x3d2c6a62	0.042093642
81	0x3eb9a4ff	0.36258695
82	0xbc7e4efb	-0.01552176
83	0x3de47b60	0.111563444
84	0x3c628270	0.013825044
85	0xbdd11649	-0.10209329
86	0x3eb00161	0.34376052
87	0x3d470b9b	0.048595052
88	0x3e085417	0.13313328
89	0xba8d2b8d	-0.0010770425
90	0xbe7f6d81	-0.24944116
91	0xbd05118d	-0.03248744
92	0x3bbcd5de	0.0057627996
93	0xbed0f004	-0.40808117
94	0xbcc2b3e0	-0.023767412
95	0xbe8381f1	-0.25685075
96	0xbd5b5854	-0.053551033
97	0xbd893e49	-0.06701333
98	0x3d85332b	0.065039
99	0x3b9e84b3	0.0048375963
100	0xbe6dc6d2	-0.23220375
101	0x3c301a7c	0.010748502
102	0x3e861ab7	0.26192257
103	0xbbb1f8dd	-0.005431278
104	0x3bd3e346	0.006466302
105	0xbe92175a	-0.2853344
106	0x3e046965	0.1293083
107	0xbe0fd649	-0.14046587
108	0xbcf23d6f	-0.02957031
109	0xbe39456a	-0.18092886
110	0xbcbbfe2b	-0.022948345
111	0xbe2d7393	-0.1693862
112	0x3d6d96df	0.05800521
113	0xbe13413e	-0.14380357
114	0x3e5edce0	0.21763945
115	0xbda8abdb	-0.08235904
116	0x3b0f8503	0.002189935
117	0xbe91428f	-0.28371093
118	0xbd9462ae	-0.07245384
119	0x3cbebe3e	0.023284074
120	0x3d248ab8	0.040171355
121	0xbcd783c6	-0.026307952
122	0xbd3b0127	-0.045655396
123	0x3de9cfcf	0.114165895
124	0xbd505b3c	-0.050868258
125	0xbdc5b69c	-0.096539706
126	0xbca2ebe4	-0.019887872
127	0xbe36bd5b	-0.17845671
128	0xbdc491d5	-0.09598128
129	0xbd2cd509	-0.042195354
130	0x3e2291ef	0.15875982
131	0x3f1d03e3	0.61334056
132	0xbd9f0a4c	-0.07765636
133	0xbdd4febe	-0.10400151
134	0xbdb173b0	-0.08664644
135	0xbe2e6199	-0.17029418
136	0x3e2027b7	0.1564015
137	0xbe068223	-0.1313558
138	0x3ca8c871	0.02060339
139	0xbd895956	-0.067064926
140	0x3db0697c	0.086138695
141	0xbd8c3569	-0.06846125
142	0xbe41cc18	-0.18925512
143	0x3dacb193	0.08432307
144	0xbd358611	-0.04431731
145	0xbe056f2c	-0.1303069
146	0xbe8f9007	-0.28039572
147	0x3d56f24e	0.052477174
148	0xbe64fa44	-0.22361094
149	0x3dc44483	0.0958338
150	0xbe0964c9	-0.13417353
151	0xbd36121b	-0.04445086
152	0x3d231716	0.03981694
153	0x3e0fd31e	0.14045379
154	0xbcbb6e73	-0.022879815
155	0xbcc968c0	-0.024586082
156	0xbdd7e1ac	-0.1054109
157	0xbe545036	-0.20733723
158	0xbc673cab	-0.014113585
159	0xbd07a98d	-0.03312068
160	0x3e17a73c	0.14809889
161	0xbe1aa417	-0.15101658
162	0xbda25341	-0.07926036
163	0xbd35a28b	-0.044344466
164	0xbd04fa9f	-0.032465573
165	0x3e8883c8	0.2666304
166	0xbde3d618	-0.111248195
167	0xbdd5df5c	-0.10442993
168	0x3eaba711	0.335259
169	0x3e873cf3	0.26413688
170	0xbe1f7d16	-0.1557506
171	0x3c65eb20	0.014033109
172	0xbe25edca	-0.1620399
173	0xbe831293	-0.25600109
174	0x3d1d54e5	0.03841104
175	0xbf0e2835	-0.555301
176	0xbe9bf7eb	-0.30462584
177	0xbed36b14	-0.41292632
178	0xbf082be3	-0.53191966
179	0xbb42a8c1	-0.0029702636
180	0xbcd0062c	-0.025393568
181	0x3e5dc4f0	0.21657157
182	0xbd1e9624	-0.038717404
183	0xbdb3d097	-0.0878002
184	0xbe10b0a5	-0.14129885
185	0xbe03f970	-0.12888122
186	0xbe00711b	-0.12543146
187	0x3e29cbf9	0.16581716
188	0xbc03492b	-0.00801305
189	0x3ec9de30	0.39427328
190	0xba19bcd7	-0.0005864626
191	0x3d175bbf	0.03695273
192	0xbe09ebd9	-0.13468875
193	0xbe3437a8	-0.17599356
194	0x3f0feed9	0.5622383
195	0xbdbf9946	-0.093554065
196	0xbe669a15	-0.22519715
197	0x3dbe2caf	0.092858665
198	0xbf20b270	-0.62772274
199	0x3bb80c07	0.005616668
200	0xbde07a65	-0.10960845
201	0xbea65253	-0.32484683
202	0x3de5ae4c	0.11214885
203	0x3e74a21f	0.2388997
204	0xbeec7095	-0.46179643
205	0xbd5bab93	-0.053630423
206	0xbe2e6bfa	-0.17033377
207	0xbf2eef91	-0.683343
208	0xbdc91aa4	-0.098195344
209	0x3d9efe02	0.07763292
210	0xbd946a84	-0.07246879
211	0xbd926f3c	-0.071501225
212	0xbdaf837a	-0.08569999
213	0xbe6dbafe	-0.23215863
214	0x3d1eef45	0.038802404
215	0x3e99fb24	0.30074418
216	0x3e4c7e90	0.19970155
217	0xbed73a4f	-0.42036673
218	0x3ed25ca6	0.4108631
219	0xbeb3021e	-0.34962553
220	0x3ee18f73	0.44054756
221	0xbeed08da	-0.46295816
222	0xbed6cc8f	-0.4195294
223	0x3db49377	0.08817189
224	0xbf38b39f	-0.7214908
225	0x3a97cc5d	0.0011581291
226	0xbdc73f17	-0.0972883
227	0x3d2eae25	0.042646546
228	0xbdffec36	-0.124962255
229	0xbe7e54f4	-0.24837095
230	0xbda2b7c1	-0.079452045
231	0xbd0b6b94	-0.03403814
232	0xbdb6b89f	-0.089219324
233	0xbe2a1fe4	-0.16613728
234	0xbe03fe3c	-0.12889951
235	0xbeabe962	-0.33576494
236	0xbe80032e	-0.25002426
237	0x3ea69887	0.32538244
238	0xbeee66b6	-0.46562737
239	0xbe3566c2	-0.1771498
240	0xbeb87cd2	-0.3603273
241	0xba8550ed	-0.0010171212
242	0xbea0f68d	-0.31438103
243	0x3d54e5bc	0.051976904
244	0x3ea3f302	0.32021338
245	0xbc73ae90	-0.014873162
246	0xbeae3955	-0.34028116
247	0xbe6ad2d3	-0.22931986
248	0xbee7cc0d	-0.45272866
249	0xbd9fb756	-0.077986404
250	0xbf46708c	-0.7751548
251	0x3e817179	0.25281885
252	0xbebfcbf2	-0.37460285
253	0x3e25945b	0.16169874
254	0xbe260665	-0.16213377
255	0x3e156b6f	0.14591764

fc2.bias f4 [64]
0	0x3e13cd3c	0.1443376
1	0x3e8dcad8	0.2769382
2	0x3e42075d	0.18948121
3	0x3c59303c	0.013256129
4	0x3e4b469d	0.19851156
5	0xbe8a1c04	-0.269745
6	0x3e0f3f19	0.13988914
7	0xbd5ed7c6	-0.054404996
8	0x3db82f4b	0.089933954
9	0x3f54a46a	0.83063376
10	0xbdf0afd7	-0.11752289
11	0x3e38d8bc	0.18051428
12	0x3ded1996	0.11577146
13	0xbcbb763b	-0.022883525
14	0xbe35ad6b	-0.17741935
15	0x3eb50323	0.35353956
16	0xbc4697dd	-0.012121168
17	0xbcbfeb13	-0.023427522
18	0xbe99c785	-0.30035034
19	0x3ef551fd	0.47914115
20	0x3ef7a935	0.48371282
21	0x3f71c9f5	0.94448787
22	0xbe897652	-0.26848084
23	0xbdfa3a04	-0.12218097
24	0x3cc7374b	0.024318358
25	0xbe1b8f2b	-0.15191333
26	0xbcfb5e32	-0.030684564
27	0xbe4419bb	-0.1915044
28	0xbddc922b	-0.10770067
29	0x3e3015c8	0.17195809
30	0xbe16032c	-0.14649647
31	0xbd9fdd54	-0.07805887
32	0xbd28f499	-0.04124889
33	0xbc2bf375	-0.010495056
34	0x3e1ea10a	0.15491119
35	0xbd69067c	-0.05689095
36	0x3e525ba0	0.20542765
37	0xbea85664	-0.3287841
38	0x3f2e33a3	0.6804754
39	0x3e580746	0.21096525
40	0xbe630ac5	-0.22172077
41	0x3f6d9e98	0.9282012
42	0x3ea55d22	0.32297617
43	0xbc88172e	-0.016612615
44	0x3dca4b6f	0.09877669
45	0xbc3df904	-0.0115950145
46	0xbdce335b	-0.10068389
47	0xbd84c005	-0.06481937
48	0x3af7a234	0.0018892945
49	0xbe231179	-0.15924634
50	0xbda18a34	-0.07887688
51	0x3f2a8127	0.6660332
52	0xbe25f032	-0.16204908
53	0xbd207d7b	-0.039182168
54	0x3e888f9b	0.26672062
55	0x3dbc76a5	0.09202317
56	0xbe9c4afe	-0.30525964
57	0xbd4e49e3	-0.050363433
58	0x3d09bdf4	0.03362842
59	0x3e86de0b	0.2634128
60	0xbe27baad	-0.16379805
61	0x3e376420	0.17909288
62	0x3e4a86b4	0.19777948
63	0x3e4ae4f7	0.19813906

fc3.weight f4 [4, 64]
0	0x3c84d483	0.016214615
1	0x3e4db6e8	0.20089304
2	0x3e101f81	0.14074518
3	0xbe85b2ad	-0.2611288
4	0x3d802964	0.06257895
5	0x3d8dd335	0.0692505
6	0x3e0d3a62	0.13791803
7	0xbea57989	-0.32319286
8	0x3e06cd83	0.13164334
9	0x3e6c13a6	0.2305437
10	0xbdaa9945	-0.08330015
11	0x3d8d45ec	0.06898102
12	0x3e9a766f	0.30168483
13	0x3d873618	0.066021144
14	0xbea12327	-0.31472132
15	0x3d9e66a5	0.07734422
16	0xbf401951	-0.7503863
17	0xbd806145	-0.06268553
18	0xbe4b6ebc	-0.1986646
19	0x3e8765d2	0.2644487
20	0x3e385d91	0.18004443
21	0x3ea7ab8f	0.32748076
22	0xbe86fb02	-0.2636338
23	0x3e1dcbea	0.15409818
24	0x3eeb8fa6	0.46008033
25	0xbec3ace3	-0.3821784
26	0xbf0343e9	-0.512755
27	0xbe806c27	-0.25082514
28	0x3dfbc18a	0.12292774
29	0x3eba019b	0.3632935
30	0xbe756790	-0.23965287
31	0x3e28ae0d	0.16472645
32	0xbd7b0a22	-0.06128896
33	0x3ee829dc	0.45344436
34	0x3eab2edf	0.33434197
35	0x3d9e8c10	0.077415586
36	0x3dcd0b74	0.1001195
37	0xbe537456	-0.20649847
38	0x3e49bf18	0.19701803
39	0x3e7c7ff4	0.24658185
40	0xbd9f1ca1	-0.077691324
41	0x3e857cd9	0.26071814
42	0x3d0ec1af	0.03485268
43	0x3d11e33d	0.035617102
44	0x3c66b5ce	0.014081432
45	0x3e75ce00	0.24004364
46	0x3e82f271	0.25575593
47	0xbd890c1b	-0.06691762
48	0xbd19ce97	-0.037550535
49	0xbe089d98	-0.13341367
50	0xbc9449ff	-0.01810169
51	0x3ed416d6	0.41423672
52	0x3bb21f00	0.0054358244
53	0x3ee613c2	0.4493695
54	0x3dd7211a	0.105043605
55	0x3e14c8c8	0.14529717
56	0xbd7f1d27	-0.06228366
57	0x3e8830c4	0.26599705
58	0x3f217d9a	0.6308228
59	0x3e0ac9cc	0.13553542
60	0xbf19c302	-0.60063183
61	0x3d4dcceb	0.050244253
62	0x3eac85fc	0.33695972
63	0x3e33908f	0.17535613
64	0x3daa06ad	0.083020546
65	0x3e89248f	0.26785704
66	0x3d9fccc8	0.07802731
67	0x3db5e226	0.08881025
68	0x3d6e424f	0.058168706
69	0xbe19e11f	-0.15027283
70	0x3e07a047	0.13244735
71	0xbdd0ad54	-0.1018931
72	0xbc955410	-0.01822856
73	0x3e50d580	0.20393944
74	0x3da00da8	0.07815105
75	0x3e3adb49	0.18247713
76	0x3f09f4e7	0.53889316
77	0x3e6237e1	0.22091629
78	0x3dc912ad	0.09818015
79	0x3e3eb07b	0.1862201
80	0x3dd49613	0.10380187
81	0x3cc318b6	0.023815494
82	0xbe128ddd	-0.14311929
83	0x3e252512	0.16127422
84	0x3e3434e1	0.17598297
85	0x3ec2ae1d	0.38023463
86	0xbec45dcd	-0.38352814
87	0x3e4dc385	0.20094116
88	0x3ee899f5	0.4542996
89	0xbec75c1e	-0.38937467
90	0xbcaa5f52	-0.020797405
91	0x3cc35176	0.023842555
92	0x3ea5cdfb	0.32383713
93	0x3e4bf2e5	0.19916876
94	0xbe44c7fa	-0.1921691
95	0x3e34ecc8	0.1766845
96	0xbd643c22	-0.05572141
97	0x3f2bec58	0.67157507
98	0x3e5f7cc0	0.21824932
99	0x3e263a98	0.16233289
100	0x3d5f5c60	0.054531455
101	0xbdbaf14f	-0.09128057
102	0x3e12a6de	0.14321467
103	0x3d6f6f28	0.058455616
104	0xbd8bb861	-0.06822277
105	0x3e80f7bd	0.2518901
106	0x3e00b0f3	0.12567501
107	0x3e6b308e	0.22967741
108	0x3dcc8fbb	0.09988352
109	0xbf2b7060	-0.66968346
110	0x3ee0f47b	0.43936524
111	0x3e18d0a9	0.14923348
112	0x3e9d836a	0.30764323
113	0xbd7c0b8c	-0.06153445
114	0xbe628e59	-0.22124614
115	0x3e7a746b	0.24458472
116	0xbe21c6be	-0.1579847
117	0x3e2cf173	0.1688898
118	0x3e18a173	0.14905338
119	0x3e811319	0.25209883
120	0xbeaf10d3	-0.34192523
121	0x3e9dd8f9	0.308296
122	0x3ee8514f	0.45374534
123	0x3e8a5160	0.2701521
124	0xbe922d41	-0.2855015
125	0x3defc534	0.117075354
126	0xbe6632be	-0.22480294
127	0x3e502061	0.20324852
128	0xbc7f2b91	-0.015574352
129	0x3e0666e6	0.1312519
130	0x3e327665	0.17427976
131	0xbf0d9f11	-0.5532084
132	0x3e837822	0.25677592
133	0x3eca31d6	0.39491147
134	0xbd340278	-0.043947667
135	0x3b75b48e	0.0037491652
136	0xbe8d0d7a	-0.27549344
137	0x3e7bd156	0.24591574
138	0x3dc16638	0.09443325
139	0x3ea110d7	0.3145816
140	0x3ee8c6bb	0.4546412
141	0x3cdaf3f9	0.026727663
142	0xbefd9816	-0.49530095
143	0x3e482ad4	0.19547588
144	0xbf302d85	-0.6881946
145	0xbea8a4a3	-0.32938108
146	0xbe537c79	-0.20652951
147	0x3d5c4cf9	0.053784344
148	0x3e6a87b4	0.22903329
149	0x3e9f9eb8	0.3117578
150	0xbea55637	-0.3229234
151	0x3ea5d88f	0.32391784
152	0x3f423933	0.7586853
153	0xbeb2fbbf	-0.34957692
154	0xbe07dedb	-0.13268606
155	0x3dc48a19	0.095966525
156	0x3ef6da7c	0.48213565
157	0x3df84320	0.12122178
158	0xbe67b5a9	-0.22627892
159	0xbe4f7088	-0.20257771
160	0xbf0a0355	-0.53911334
161	0x3d9fb5fb	0.07798382
162	0x3e763710	0.24044442
163	0x3e017cd5	0.12645276
164	0x3d900515	0.07032219
165	0xbe0c9c44	-0.13731486
166	0x3eb720de	0.35767263
167	0x3bee3cbf	0.007270425
168	0x3ea15452	0.31509644
169	0x3ea2db10	0.31807756
170	0x3e97ac00	0.29623413
171	0x3e79db78	0.24400127
172	0x3e173c8b	0.14769189
173	0xbe94828b	-0.29005846
174	0x3e9ab72b	0.3021787
175	0x3ec7a627	0.38993952
176	0xbdb58d52	-0.08864845
177	0xbd4310df	-0.04762351
178	0x3d91613d	0.07098625
179	0x3eaa2cde	0.33237356
180	0xbf826943	-1.0188373
181	0xbd3cfec0	-0.046141386
182	0x3e60f9fb	0.2197036
183	0x3e81242e	0.25222915
184	0xbead4a4b	-0.33845744
185	0x3e5c1b52	0.21494797
186	0x3e1c6079	0.15271176
187	0x3e97ff97	0.29687187
188	0xbcef4f0a	-0.029212493
189	0x3e4441b9	0.19165696
190	0xbe16a997	-0.14713131
191	0x3e6551a2	0.22394422
192	0x3e9b7f96	0.30370778
193	0x3df20910	0.11818135
194	0x3e9bb09d	0.30408183
195	0xbf384104	-0.71974206
196	0x3da57c29	0.08080322
197	0xbf0f2646	-0.55917776
198	0x3e3a2c91	0.18181063
199	0xbe88e62e	-0.26738113
200	0x3e56058a	0.2090055
201	0x3e9b9196	0.3038451
202	0x3e863777	0.2621419
203	0x3dcbf743	0.09959271
204	0x3e8f2a54	0.2796198
205	0xbeefa9f6	-0.46809357
206	0x3e9140dd	0.283698
207	0x3e4ed3db	0.20198004
208	0xbb61a322	-0.003442951
209	0xbe334f05	-0.17510612
210	0x3e11b5d7	0.14229523
211	0x3e4bb421	0.19892932
212	0x3eb1e429	0.34744385
213	0x3e97b015	0.29626527
214	0xbe738ce1	-0.2378421
215	0xbe9ce438	-0.30642867
216	0x3ec87aa5	0.3915607
217	0x3cf1b591	0.029505523
218	0xbdab5583	-0.083659194
219	0x3e10e448	0.14149582
220	0x3e6021d8	0.2188791
221	0x3c9477fd	0.018123621
222	0xbe044033	-0.12915115
223	0x3e825ff6	0.25463837
224	0xbecb2fcf	-0.39684913
225	0x3f0afc3a	0.5429112
226	0x3e200edf	0.15630673
227	0x3e428896	0.18997416
228	0xbe547920	-0.2074933
229	0xbe28525b	-0.16437666
230	0x3e8b20b7	0.27173397
231	0x3dc5fcf1	0.09667385
232	0x3c95dd2a	0.018293936
233	0x3e9f2520	0.31083012
234	0x3e26d7d4	0.1629327
235	0x3df2d6c1	0.11857367
236	0x3e718c73	0.23588733
237	0xbf200cc4	-0.6251948
238	0x3eeed6e3	0.4664832
239	0x3f393651	0.72348505
240	0x3ed1446a	0.40872508
241	0xbeb869bb	-0.36018166
242	0x3e5dbb1d	0.2165341
243	0x3ea0cf8c	0.31408346
244	0x3e3dbc8d	0.18528958
245	0x3ef54bad	0.479093
246	0x3dd5d984	0.104418784
247	0x3d986048	0.07440239
248	0xbe814808	-0.25250268
249	0xbecd3635	-0.4008042
250	0x3e61e77c	0.2206096
251	0x3e222d66	0.1583763
252	0xbe635658	-0.22200906
253	0x3c5cce72	0.013476955
254	0xbf07f8b9	-0.53113896
255	0x3e300760	0.17190313

fc3.bias f4 [4]
0	0x3f20379d	0.6258486
1	0x3f0d862e	0.55282867
2	0x3ed4be83	0.415516
3	0x3edff5a3	0.43742093
