_dqn_agent.Agent object at 0x7f3cf2185128__checkpoint.pth (torch_old, 28333 bytes, 6 tensors)

fc1.weight f4 [64, 37]
0.04837716 0.012260338 -0.10554752 -0.43609166 -0.24963272 0.023483643 0.0027027673 0.0986109
-0.09875119 -0.25203595 0.05218245 -0.12217369 0.007204251 -0.22738475 -0.29934716 0.00015764477
0.110661775 0.08331358 -0.24302669 -0.23557338 0.32920972 -0.1984404 -0.0649754 -0.18008521
-0.16745813 0.045689028 0.017580692 -0.040784653 -0.42463693 -0.40848467 -0.55657053 0.3933592
0.119426906 -0.06590222 0.10485089 -0.0063308566 -0.019350583 -0.0959841 0.12701686 0.06909856
-0.15685295 -0.10888578 -0.13672863 -0.09624473 -0.1339661 -0.09044722 -0.30852973 -0.39459604
0.01719569 0.06394499 -0.019913979 0.15488008 -0.15035146 0.040326584 -0.0255803 0.091081716
0.035814684 -0.2069086 -0.08166613 -0.21121834 -0.009022985 -0.061298676 -0.095965534 -0.048017163
-0.15474853 -0.06360464 0.05023192 -0.063276574 -0.035690002 -0.015705446 0.20586579 0.24125524
0.08966087 0.0825124 0.02785992 0.075761825 0.1900001 -0.023517925 0.29737455 -1.2461681
0.18650362 0.21689291 -0.09994187 -0.15560247 -0.20649232 0.08344877 -0.06361006 0.11158373
0.08973655 -0.16295244 0.13375396 0.035742585 0.14303057 0.3054804 -0.1469663 -0.029611176
0.037551936 -0.12921607 0.287336 -0.08081106 0.05502771 0.19440559 -0.1860913 -0.3318688
-0.117773816 0.010753916 0.002553575 -0.25512078 -0.01239503 0.044618692 0.028741017 0.20754597
-0.59354687 0.12007121 0.08079145 -0.796048 -0.031674966 0.1108037 -0.0055594114 -0.04727175
0.04488246 -0.019557869 0.10238969 -0.18716604 0.047843963 -0.08423838 -0.04571075 0.029728375
0.035102926 -0.2520717 -0.5430904 0.14362204 0.1526497 -0.328339 0.075183734 0.10576051
-0.10479056 0.05180973 0.28726724 -0.11662563 -0.18168433 0.30510807 -0.3674772 -0.013252593
-0.41391024 -1.1072196 -0.072970144 -0.004001272 -0.23358847 -0.18808788 -0.12840672 -0.024971854
0.0076014088 0.061130937 0.1636366 -0.17248772 -0.26770255 -0.7654903 -0.07375676 0.22305784
-0.5411652 -0.5916678 -0.38791177 -0.06502916 0.05664501 -0.20594569 -0.30857792 0.026984049
-0.17480023 0.19660848 0.013322668 -0.058753747 -0.8167919 0.24126415 -0.32292348 -0.3815682
-0.4105331 -1.1819891 -0.0761355 0.25179318 0.121425755 -0.058211025 -0.85228986 -0.11116421
0.025259076 0.024555396 -0.16694348 0.16765872 -0.20093234 0.1707305 -0.053888634 0.43923813
-0.070502095 -0.22823462 -0.7513617 -0.11843554 0.11952148 -0.19734405 -0.19721642 -0.057142083
0.09652188 -0.08111251 -0.018972544 -0.16978319 -0.2204943 0.04837405 0.16895622 -0.2927685
-0.0066468557 -0.39197624 -0.13977318 0.0077703376 0.16596974 0.06573344 -0.123165645 -0.040805627
0.14318523 -0.18082206 0.027373375 -0.81441283 0.13111998 0.020329567 -0.2743616 0.06613566
-0.01726405 -0.32648793 -0.5762784 -0.07372554 -0.18857564 0.046353884 -0.42997077 0.53628117
-0.13329233 -0.059214693 0.020777378 0.17670085 0.2695308 -0.24140477 0.0093557425 -0.06020309
-0.082362175 -0.15442547 0.01526404 -0.6881352 -0.11748874 0.11097847 0.22917484 -0.082380734
-0.28470176 -0.112900905 -0.09993437 0.14893393 -0.1006423 -0.43442595 0.061292406 0.13938037
00000000: 2127 463d 96df 483c 4c29 d8bd 6847 dfbe
00000010: b89f 7fbe c560 c03c e920 313b 83f4 c93d
00000020: 103e cabd db0a 81be 44bd 553d 3336 fabd
00000030: a311 ec3b 8cd7 68be 0844 99be 724d 2539
00000040: a4a2 e23d 4fa0 aa3d fddb 78be 263a 71be
00000050: 2d8e a83e f633 4bbe d311 85bd 4268 38be
00000060: 257a 2bbe 6b24 3b3d 6205 903c cf0d 27bd
00000070: 036a d9be e724 d1be 687b 0ebf 6166 c93e
00000080: 1896 f43d bef7 86bd 10bc d63d 1373 cfbb
00000090: 1d85 9ebc 5093 c4bd b510 023e 8c83 8d3d
000000a0: 0f9e 20be 82ff debd 9702 0cbe f51b c5bd
000000b0: 692e 09be 643c b9bd 9cf7 9dbe 7e08 cabe
000000c0: fadd 8c3c 97f5 823d a422 a3bc e298 1e3e
000000d0: bcf5 19be 7d2d 253d c78d d1bc 0d89 ba3d
000000e0: 6bb2 123d d9df 53be 9240 a7bd 9f49 58be
000000f0: 24d5 13bc 5214 7bbd 9489 c4bd a5ad 44bd
00000100: 6676 1ebe 2643 82bd fcbf 4d3d 2697 81bd
00000110: ae2f 12bd b5a8 80bc 7bce 523e 9d0b 773e
00000120: 1ea0 b73d 43fc a83d 7d3a e43c 0429 9b3d
00000130: 638f 423e aaa8 c0bc 7a41 983e 7082 9fbf
00000140: cefa 3e3e 2d19 5e3e 53ae ccbd 4156 1fbe
00000150: b972 53be 30e7 aa3d fe45 82bd 0386 e43d
00000160: ccc7 b73d 01dd 26be ccf6 083e d166 123d
00000170: 9b76 123e ed67 9c3e 557e 16be 2393 f2bc
00000180: 0fd0 193d 3851 04be b41d 933e 4580 a5bd
00000190: bc64 613d 4212 473e b88e 3ebe b5ea a9be
000001a0: 6633 f1bd 3131 303c e159 273b 319f 82be
000001b0: 8614 4bbc 17c2 363d 4872 eb3c ee86 543e
000001c0: b0f2 17bf e5e7 f53d fd75 a53d cdc9 4bbf
000001d0: 9cbd 01bd 0ded e23d b92b b6bb 06a0 41bd
000001e0: acd6 373d d337 a0bc b0b1 d13d 74a8 3fbe
000001f0: 08f8 433d 2c85 acbd 323b 3bbd ec88 f33c
00000200: 16c8 0f3d 8b0f 81be f907 0bbf a811 133e
00000210: 3450 1c3e 0d1c a8be eef9 993d f798 d83d
00000220: 6f9c d6bd 7036 543d b114 933e 6bd9 eebd
00000230: 750b 3abe 2037 9c3e f925 bcbe 6721 59bc
00000240: 0bec d3be 5fb9 8dbf 5f71 95bd 1a1d 83bb
00000250: d131 6fbe 1c9a 40be 0d7d 03be c691 ccbc
00000260: 3d15 f93b 6f64 7a3d 5a90 273e 9fa0 30be
00000270: 4f10 89be 2cf7 43bf c90d 97bd 4669 643e
00000280: cd89 0abf 8a77 17bf 5f9c c6be 022e 85bd
00000290: 9904 683d 6de3 52be edfd 9dbe a70d dd3c
000002a0: d5fe 32be bc53 493e 5247 5a3c c5a7 70bd
000002b0: 4619 51bf f30d 773e 3a56 a5be e85c c3be
000002c0: 6531 d2be 6b4b 97bf eeec 9bbd 09eb 803e
000002d0: 11ae f83d af6e 6ebd ab2f 5abf 10aa e3bd
000002e0: 1fec ce3c 6628 c93c 3bf3 2abe baae 2b3e
000002f0: 35c1 4dbe fad3 2e3e 54ba 5cbd d2e3 e03e
00000300: 6763 90bd 56b6 69be 3e59 40bf 558e f2bd
00000310: adc7 f43d 8f14 4abe 1af3 49be d10d 6abd
00000320: 43ad c53d 511e a6bd 4f6c 9bbc a5db 2dbe
00000330: 42c9 61be de23 463d dc02 2d3e c1e5 95be
00000340: decd d9bb 1cb1 c8be b320 0fbe 519e fe3b
00000350: f9f3 293e 419f 863d 453e fcbd cd23 27bd
00000360: 269f 123e 6b29 39be 213e e03c 5c7d 50bf
00000370: 5144 063e 318a a63c 2079 8cbe 2272 873d
00000380: 566d 8dbc 6d29 a7be fb86 13bf 6afd 96bd
00000390: f919 41be 92dd 3d3d 2125 dcbe b949 093f
000003a0: c97d 08be 1b8b 72bd 5235 aa3c 11f1 343e
000003b0: f1ff 893e d032 77be d448 193c 8497 76bd
000003c0: 80ad a8bd b621 1ebe 0616 7a3c a129 30bf
000003d0: f09d f0bd ae48 e33d cfac 6a3e 3bb7 a8bd
000003e0: 6ec4 91be 9738 e7bd 64aa ccbd 2382 183e
000003f0: 8d1d cebd 146d debe bf0d 7b3d bab9 0e3e

fc1.bias f4 [64]
0.12044746 -0.20607409 -0.1956362 -0.052160077 0.14924288 -0.022507556 -0.18209669 0.014003344
-0.07287668 -0.25700787 0.08576669 0.22879758 0.407398 0.23672833 -0.14298569 -0.11332863
-0.03381971 0.03914895 0.015317963 -0.13284118 -0.15649906 -0.02541428 0.019104585 -0.092831485
-0.18619888 -0.0068516927 -0.09289603 -0.19402675 0.19440643 0.15503429 0.0048930487 -0.17942922
0.0612605 -0.030008478 -0.058541898 0.06313487 -0.0867194 -0.022258153 -0.012618075 -0.17534226
-0.05512069 0.06300317 -0.011322331 0.019997906 -0.079052985 -0.033971626 0.020479007 -0.09374672
-0.1448413 0.024879504 -0.21203102 0.124564655 0.057406012 -0.054512393 -0.30821547 -0.032686483
0.14253142 -0.10264351 -0.09974612 -0.08507911 -0.08379861 0.20227435 0.07120505 0.06909758
00000000: 28ad f63d 1605 53be db54 48be cea5 55bd
00000010: 20d3 183e c461 b8bc 8e77 3abe 486e 653c
00000020: 5e40 95bd 8996 83be 72a6 af3d ea49 6a3e
00000030: 7896 d03e e968 723e d76a 12be d718 e8bd
00000040: 8986 0abd a65a 203d 32f8 7a3c 8507 08be
00000050: 4a41 20be 9c31 d0bc 3881 9c3c 6f1e bebd
00000060: ebaa 3ebe 2a84 e0bb 4640 bebd f3ae 46be
00000070: 7b12 473e 4fc1 1e3e de55 a03b 4bbc 37be
00000080: 4aec 7a3d 57d4 f5bc a1c9 6fbd db4c 813d
00000090: f199 b1bd bb56 b6bc 0bbc 4ebc ec8c 33be
000000a0: 3cc6 61bd ce07 813d 4c81 39bc a6d2 a33c
000000b0: 88e6 a1bd d525 0bbd 97c3 a73c 48fe bfbd
000000c0: 4751 14be 1ad0 cb3c a91e 59be c11b ff3d
000000d0: 9122 6b3d 6348 5fbd 6bce 9dbe 43e2 05bd
000000e0: c2f3 113e c336 d2bd b247 ccbd f53d aebd
000000f0: 9b9e abbd 0221 4f3e f4d3 913d 0883 8d3d

fc2.weight f4 [64, 64]
-0.019043365 0.063645184 0.009819058 0.23109402 0.16767654 -0.10791558 0.095424384 0.23567191
0.22398537 -0.0076240357 -0.095128655 -0.18315591 -0.08999806 0.059492335 0.038655326 -0.05246002
-0.031359423 -0.45313948 0.09963125 -0.05642572 -0.5555969 0.17314078 0.470959 -0.21862344
-0.22603136 -0.12300865 -0.1596443 0.07241227 0.15168257 -0.17123526 0.06824926 0.13148084
0.008362697 0.09739658 -0.12088158 -0.22371365 -0.4618952 0.07769497 0.21150833 0.080702975
-0.24767433 -0.12686108 0.13391572 0.0499927 -0.20290762 0.32571605 -0.0076642213 -0.021778286
0.061731912 0.14482975 0.06321928 -0.09914209 -0.090995625 0.66139716 -0.029166088 0.10467587
-0.38325432 -0.15850915 -0.2416603 -0.00787566 -0.15944247 0.044029165 0.3094103 -0.34514928
-0.16162191 0.12014505 -0.2550896 -0.07687617 0.020435357 0.024289053 -0.2613104 0.14292733
-0.03975035 -0.4238732 0.022610035 0.38793454 -0.28475714 0.041580983 -0.29504004 0.21954618
-0.05977659 -0.050049596 -0.052434605 0.108589865 0.18057631 -0.06630815 0.047736175 0.1688564
-0.09975384 0.13041443 -0.090287074 -0.21394767 0.21530807 0.004849418 0.18913335 0.006119667
-0.10260455 0.24543776 -0.104837544 -0.21627304 -0.42361897 -0.007066382 0.012422537 -0.09511997
-0.21713509 0.2525361 0.26823813 -0.31334877 0.002248277 0.26000315 -0.2792406 -0.16387765
-0.14554156 0.21476246 -0.30001172 0.34123865 -0.032639954 -0.14735329 -0.13619381 0.08987657
-0.33628514 -0.11386392 0.19134513 0.43584886 -0.20277426 -0.010145728 0.2860627 -0.020014083
0.12232007 -0.12152848 -0.058017366 -0.0005174729 0.24397916 0.19786686 -0.17913343 0.23972495
0.2090597 -0.01877309 -0.0044438476 -0.2997863 0.08740472 0.013762574 0.053001326 -0.12428022
0.1423949 0.37227264 -0.18426938 -0.5556233 -0.25387713 0.08183895 -0.05471336 -0.35292402
-0.2103577 0.18463612 -0.042259008 -0.042922314 0.06929321 0.16760476 0.44642168 -0.092072316
-0.19427714 0.035676017 -0.0009897727 -0.0089640515 -0.13198988 -0.055526026 0.05549506 -0.20348394
0.29607546 -0.4504256 0.18371868 -0.079679176 -0.20228879 0.024683675 -0.21611983 0.079856955
-0.32012683 -0.14349227 -0.07765773 -0.07295052 -0.2853348 0.17070128 0.06038441 0.020094149
-0.06305638 -0.11488876 -0.048667397 0.17122342 -0.11173062 -0.13425398 0.13180095 0.02250196
0.022180518 -0.059196487 0.068962 -0.15025899 -0.17553455 0.13219778 -0.105233796 -0.10628024
-0.14324568 -0.0032561284 -0.07645595 -0.14514668 -0.13926315 0.05341559 0.1496787 0.06122507
0.16155858 -0.13309821 -0.029968575 0.42638573 -0.013025426 -0.0065400484 -0.32894498 0.17568699
0.0946795 -0.44344586 0.233493 -0.03687531 -0.022115504 -0.27863035 -0.14218259 0.061505802
0.016229471 0.058763124 -0.064624004 -0.033151682 0.07314619 -0.07092411 1.0867798 -0.053249046
-0.36432743 -0.02652756 0.055652928 -0.03676727 0.0055547147 -0.104536034 -0.11080027 -0.5396562
0.11545361 0.70506006 -0.0058767973 0.018764433 0.020770745 -0.27695146 -0.39004505 0.031146372
-0.4997997 -0.28511545 -0.017478421 0.09300731 -0.35050002 -0.04925083 0.4747542 0.12916267
00000000: d500 9cbc 6858 823d 1de0 203c e9a3 6c3e
00000010: 66b3 2b3e d802 ddbd dc6d c33d fa53 713e
00000020: 6c5c 653e 0cd3 f9bb d0d2 c2bd 398d 3bbe
00000030: e750 b8bd 3cae 733d 0c55 1e3d 51e0 56bd
00000040: bd72 00bd e601 e8be 780b cc3d a81e 67bd
00000050: 993b 0ebf d14b 313e 8a21 f13e d3de 5fbe
00000060: c474 67be f6eb fbbd cc79 23be e24c 943d
00000070: ad52 1b3e 4c58 2fbe 45c6 8b3d eaa2 063e
00000080: b203 093c dc77 c73d c390 f7bd 3115 65be
00000090: 877d ecbe 8a1e 9f3d a495 583e 9a47 a53d
000000a0: 579e 7dbe dfe7 01be 3421 093e 25c5 4c3d
000000b0: 04c7 4fbe 41c4 a63e 2624 fbbb 6068 b2bc
000000c0: 9ada 7c3d 404e 143e 1c79 813d 020b cbbd
000000d0: ea5b babd 5351 293f b8ed eebc 4d60 d63d
000000e0: e939 c4be 3950 22be cc75 77be ea08 01bc
000000f0: e344 23be ed57 343d 076b 9e3e 68b7 b0be
00000100: 3780 25be 9c0e f63d 1b9b 82be 4171 9dbd
00000110: 0d68 a73c d6f9 c63c 7aca 85be 8b5b 123e
00000120: 43d1 22bd e805 d9be ae38 b93c 5b9f c63e
00000130: b0cb 91be d250 2a3d 7d0f 97be b7d0 603e
00000140: 4cd8 74bd ce00 4dbd abc5 56bd 5d64 de3d
00000150: ffe8 383e 91cc 87bd 0287 433d b1e8 2c3e
00000160: be4b ccbd 5c8b 053e 6ee8 b8bd 1915 5bbe
00000170: b879 5c3e dee7 9e3b 2cac 413e 7d87 c83b
00000180: 5622 d2bd 0954 7b3e 11b5 d6bd ae76 5dbe
00000190: 96e4 d8be 1c8d e7bb e687 4b3c 42ce c2bd
000001a0: a958 5ebe 694c 813e 8256 893e 406f a0be
000001b0: d457 133b 221f 853e a0f8 8ebe 8bcf 27be
000001c0: d908 15be b1ea 5b3e 239b 99be d5b6 ae3e
000001d0: 79b1 05bd c8e3 16be 6476 0bbe 3511 b83d
000001e0: 912d acbe 7d31 e9bd faef 433e 9527 df3e
000001f0: 0ea4 4fbe 443a 26bc cf76 923e 93f4 a3bc
00000200: f282 fa3d ece3 f8bd 9ea3 6dbd 05a7 07ba
00000210: acd5 793e 9c9d 4a3e c16e 37be 757a 753e
00000220: bf13 563e 06ca 99bc b29d 91bb 977d 99be
00000230: 3f01 b33d 6b7c 613c eb17 593d a186 febd
00000240: f8cf 113e 859a be3e 1db1 3cbe 543d 0ebf
00000250: 2ffc 81be 2e9b a73d 1e1b 60bd 75b2 b4be
00000260: 0268 57be 4011 3d3e c817 2dbd 4fcf 2fbd
00000270: 99e9 8d3d 95a0 2b3e 6291 e43e 6990 bcbd
00000280: 96f0 46be 0421 123d 43bb 81ba f5dd 12bc
00000290: 5b28 07be 426f 63bd ca4e 633d 185e 50be
000002a0: 3497 973e 2f9e e6be c020 3c3e d62e a3bd
000002b0: cb24 4fbe 6b35 ca3c 844e 5dbe 0b8c a33d
000002c0: aae7 a3be a3ef 12be 040b 9fbd 1567 95bd
000002d0: 6717 92be 51cc 2e3e a555 773d 7c9c a43c
000002e0: b423 81bd cc4a ebbd 7757 47bd 3155 2f3e
000002f0: 06d3 e4bd e079 09be d4f6 063e 0856 b83c
00000300: ebb3 b53c 0478 72bd f33b 8d3d 7edd 19be
00000310: 54bf 33be db5e 073e d184 d7bd 74a9 d9bd
00000320: ffae 12be c564 55bb f094 9cbd 55a1 14be
00000330: 009b 0ebe 4eca 5a3d 6045 193e 24c7 7a3d
00000340: 9d6f 253e e64a 08be a880 f5bc 3b4f da3e
00000350: 9968 55bc e74d d6bb 7a6b a8be 4ae7 333e
00000360: 53e7 c13d 560b e3be ca18 6f3e 910a 17bd
00000370: 932b b5bc a3a8 8ebe 5098 11be 82ed 7b3d
00000380: abf3 843c 9ab1 703d 9759 84bd 0fca 07bd
00000390: abcd 953d a940 91bd 9a1b 8b3f ac1b 5abd
000003a0: 2089 babe 5350 d9bc 53f4 633d 4799 16bd
000003b0: 5304 b63b fd16 d6bd 41eb e2bd e926 0abf
000003c0: f172 ec3d d17e 343f 2692 c0bb deb7 993c
000003d0: 6927 aa3c 95cc 8dbe fcb3 c7be ad26 ff3c
000003e0: bfe5 ffbe a7fa 91be e82e 8fbc 9e7a be3d
000003f0: bd74 b3be 3dbb 49bd fc12 f33e 3843 043e

fc2.bias f4 [64]
0.03686399 -0.16226773 0.13898286 -0.05537661 0.5084074 -0.09813581 -0.00025052857 0.0075041503
0.44365206 0.67566776 -0.09590904 0.07589224 0.132302 -0.13527691 -0.21426661 0.00678254
0.42781058 -0.1429936 -0.26130825 0.35718513 0.45888928 0.4495145 -0.31811756 -0.19405513
-0.06365094 -0.16841772 0.11174567 -0.07323675 0.010362674 0.052830946 0.03644049 0.15163887
0.052983116 0.15591735 0.018044498 -0.10921945 0.037559 -0.23008364 0.044326577 0.058362287
-0.13247971 0.687513 0.58294964 -0.18146104 0.09460556 -0.11570327 0.55686474 -0.105558634
0.067526035 -0.15531771 -0.01767246 0.6229894 0.13767691 -0.19284707 0.1884052 -0.06657277
-0.25158608 -0.188932 -0.21602373 0.049146015 0.1346104 0.4978109 -0.107720666 -0.025628135
00000000: b2fe 163d 8329 26be 8651 0e3e 96d2 62bd
00000010: fd26 023f 6dfb c8bd 6059 83b9 60e5 f53b
00000020: 5d26 e33e 90f8 2c3f f56b c4bd 646d 9b3d
00000030: 2d7a 073e 0886 0abe b568 5bbe 1240 de3b
00000040: fd09 db3e ea6c 12be 32ca 85be f8e0 b63e
00000050: 89f3 ea3e c426 e63e 4ee0 a2be 63b6 46be
00000060: 6d5b 82bd b275 2cbe eada e43d 26fd 95bd
00000070: 34c8 293c 4365 583d a042 153d 3847 1b3e
00000080: d304 593d cca8 1f3e 0ed2 933c 72ae dfbd
00000090: 77d7 193d 0c9b 6bbe c98f 353d 4b0d 6f3d
000000a0: c3a8 07be da00 303f 303c 153f ecd0 39be
000000b0: 8fc0 c13d d6f5 ecbd b08e 0e3f 202f d8bd
000000c0: 174b 8a3d 9b0b 1fbe d6c5 90bc 3c7c 1f3f
000000d0: 2dfb 0c3e b479 45be 4bed 403e 4e57 88bd
000000e0: e4cf 80be 6477 41be 5335 5dbe 554d 493d
000000f0: 4fd7 093e 12e1 fe3e a79c dcbd 18f2 d1bc

fc3.weight f4 [4, 64]
0.21987745 -0.048470933 0.18156028 0.25646642 0.21903463 0.10112332 0.28390837 -0.107441805
0.15514904 0.19917978 -0.23525198 -0.07861264 0.13111657 -0.045452017 -0.33265474 -0.11669891
0.12894233 -0.09046433 -0.3150121 0.14293721 0.10127377 0.2217164 -0.18001929 -0.3088034
0.10603555 -0.17002313 -0.6035807 -0.01638138 0.29482874 0.58547103 -0.7047318 0.025085464
0.12744744 0.36295006 0.026180204 -0.00016740306 0.19540356 -0.3624923 0.38891616 0.2516489
-0.3115273 0.1893416 0.18787314 -0.31586048 0.38915387 0.0076446966 0.24052672 0.27447549
-0.057097916 0.29451478 0.3230021 0.17717569 0.21625842 0.057690345 0.046899468 -0.006273315
-0.7347932 0.19610891 -0.22789475 0.061715983 0.06356081 0.21447551 -0.0210181 0.17114381
0.13648096 -0.020451367 0.18853551 0.47707972 0.1762462 0.0028959226 0.14217046 0.03396321
0.2075488 0.22836018 -0.03127691 -0.1030961 0.08635988 0.0045099286 -0.097599134 0.10389415
0.16219041 0.41055956 -0.18793127 0.19462077 0.22090122 0.20374416 0.12676129 -0.061196644
0.07816356 -0.3909045 -0.24818152 0.19730951 0.3805501 0.48968565 0.19748107 0.0013421566
-0.086824365 0.32088038 0.10320227 -0.05947222 0.28797138 -0.15741523 0.24263087 0.27635613
-0.2539618 0.19507514 0.14882101 -0.076024614 0.43613046 0.120505966 0.2679191 0.35983032
0.03035386 0.65365875 0.27276137 0.08271203 0.1293732 0.101887144 0.06305974 -0.064022146
-0.22561586 -0.58608633 -0.22305317 0.10799063 -0.14651987 0.07745409 -0.06651202 0.054152444
0.31354132 0.38995805 0.10169891 0.7532006 0.2597431 0.3115234 0.2466816 -0.08990882
0.10956973 0.1720149 -0.31622913 0.16336355 -0.005604702 -0.40991166 0.17877027 0.14654449
0.085749306 0.28874764 0.1768407 0.103728674 0.09771348 0.25519145 -0.035352886 -0.06380365
0.4262479 0.015800312 -0.6276801 -0.177215 0.35079142 0.1623356 -0.23552454 -0.06358021
-0.7792774 0.19720146 0.121813424 0.08264422 0.16103457 0.03349785 0.20605138 0.07297092
-0.6827676 0.26717925 0.21263474 -0.16527033 0.26205948 0.1080546 0.21204676 0.39167273
0.19181427 0.4995248 0.060461093 0.27753353 -0.0714171 0.1045141 0.17068265 0.11455121
-0.5705615 -0.20768535 -0.040422015 0.14324358 -0.7980807 0.19316104 -0.33293366 -0.1267495
0.39044133 0.47026342 0.14605652 -0.12621804 0.11060222 -0.21347621 0.105355956 0.16389626
0.19273414 0.25946373 0.028891 -0.24229802 0.21802019 -0.263085 -0.47797412 -0.09842406
0.24860285 0.27873558 -0.2557674 0.20947476 0.10722245 0.20628768 -0.4858668 0.13439807
0.0676038 -0.19879891 -0.5840805 0.6325664 0.14026116 0.39069626 -0.3105188 0.04908234
0.2983438 0.110860124 0.19509298 0.01553345 -0.03751374 -0.019501496 0.56420183 0.3136204
-0.13575473 0.24707021 0.20541035 -0.15952231 0.38706177 -0.41839725 0.2145291 0.11605859
0.018682498 0.15632126 0.21537219 0.18466532 0.043086175 -0.29449236 -0.027683167 0.22160432
0.086043164 0.026402924 -0.39389524 -0.2520607 -0.24185596 0.12354672 -0.2014609 0.22175628
00000000: 8e27 613e 7589 46bd f0ea 393e 914f 833e
00000010: 9d4a 603e be19 cf3d 705c 913e 730a dcbd
00000020: 64df 1e3e c9f5 4b3e e5e5 70be aaff a0bd
00000030: 6c43 063e e52b 3abd b951 aabe d7ff eebd
00000040: 7509 043e 5d45 b9bd 4449 a1be 225e 123e
00000050: 9f68 cf3d a009 633e fa56 38be 7b1b 9ebe
00000060: 2b29 d93d 8b1a 2ebe 4484 1abf 3e32 86bc
00000070: cbf3 963e 6ee1 153f 4e69 34bf 0880 cd3c
00000080: 9581 023e 97d4 b93e de77 d63c eb88 2fb9
00000090: df17 483e 9798 b9be 0520 c73e 20d8 803e
000000a0: 8280 9fbe c4e2 413e d161 403e 77b8 a1be
000000b0: 2d3f c73e 5d80 fa3b a34c 763e 0d88 8c3e
000000c0: 81df 69bd a4ca 963e 8860 a53e 8b6d 353e
000000d0: d972 5d3e b64c 6c3d a819 403d 6190 cdbb
000000e0: 681b 3cbf c6d0 483e 3e5d 69be e6c9 7c3d
000000f0: 2c2c 823d 789f 5b3e 272e acbc 5340 2f3e
00000100: aac1 0b3e a089 a7bc 740f 413e cb43 f43e
00000110: e279 343e 85c9 3d3b 2295 113e 021d 0b3d
00000120: ac87 543e 40d7 693e 381c 00bd 0c24 d3bd
00000130: 73dd b03d 06c8 933b 0ee2 c7bd 75c6 d43d
00000140: 3e15 263e dd34 d23e 0e71 40be ab4a 473e
00000150: ee33 623e 4fa2 503e b6cd 013e 55a9 7abd
00000160: 3714 a03d a224 c8be 4c23 7ebe 810b 4a3e
00000170: 76d7 c23e 14b8 fa3e 7a38 4a3e 4deb af3a
00000180: f9d0 b1bd 6f4a a43e b65b d33d 2499 73bd
00000190: fc70 933e 7531 21be 3a74 783e 8d7e 8d3e
000001a0: 4807 82be c7c1 473e 8964 183e cbb2 9bbd
000001b0: 7e4c df3e d5cb f63d b12c 893e ae3b b83e
000001c0: a9a8 f83c 2e56 273f 61a7 8b3e ed64 a93d
000001d0: 687a 043e 35aa d03d 7725 813d 0b1e 83bd
000001e0: d807 67be c109 16bf 0d68 64be 312a dd3d
000001f0: 4e09 16be 40a0 9e3d 7437 88bd f4ce 5d3d
00000200: 7d88 a03e 95a8 c73e 8547 d03d c1d1 403f
00000210: 0cfd 843e ff7f 9f3e 1a9a 7c3e 1e22 b8bd
00000220: 1866 e03d ad24 303e c9e8 a1be c648 273e
00000230: a6a7 b7bb f1df d1be 8e0f 373e c20f 163e
00000240: 559d af3d bbd6 933e ba15 353e b36f d43d
00000250: 011e c83d 74a8 823e 30ce 10bd 7dab 82bd
00000260: 2a3d da3e a86f 813c a5af 20bf d977 35be
00000270: ef9a b33e 4e3b 263e 582d 71be 5736 82bd
00000280: b97e 47bf 2eef 493e 5179 f93d 5f41 a93d
00000290: 3fe6 243e 0b35 093d 22ff 523e c771 953d
000002a0: dcc9 2ebf b8cb 883e ecbc 593e a03c 29be
000002b0: a92c 863e bb4b dd3d c922 593e 5489 c83e
000002c0: f66a 443e b7c1 ff3e 0da6 773d e018 8e3e
000002d0: 2143 92bd 7d0b d63d 6fc7 2e3e d399 ea3d
000002e0: 5210 12bf 78ab 54be 8e91 25bd 72ae 123e
000002f0: 044f 4cbf 02cc 453e 4876 aabe 9fca 01be
00000300: ede7 c73e 5ec6 f03e d78f 153e 4d3f 01be
00000310: 6b83 e23d 8299 5abe ddc4 d73d 6cd4 273e
00000320: 195c 453e 6ed8 843e d2ac ec3c f91c 78be
00000330: af40 5f3e 14b3 86be 06b9 f4be 8e92 c9bd
00000340: bf91 7e3e 6eb6 8e3e f2f3 82be 8d80 563e
00000350: 7297 db3d 143d 533e 89c3 f8be a69f 093e
00000360: dc73 8a3d f191 4bbe 4d86 15bf dfef 213f
00000370: 9fa0 0f3e 5709 c83e 52fc 9ebe 900a 493d
00000380: 85c0 983e a20a e33d 74c6 473e 0380 7e3c
00000390: 02a8 19bd 9ac1 9fbc 886f 103f da92 a03e
000003a0: 4a03 0bbe f9ff 7c3e 1757 523e d159 23be
000003b0: f62c c63e 2a38 d6be 84ad 5b3e 20b0 ed3d
000003c0: 0a0c 993c ae12 203e 878a 5c3e e818 3d3e
000003d0: 217b 303d b4c7 96be cfc7 e2bc 3eec 623e
000003e0: 6637 b03d f24a d83c a3ac c9be 1a0e 81be
000003f0: 17a9 77be 1006 fd3d c44b 4ebe 1414 633e

fc3.bias f4 [4]
0.54750437 0.44299808 0.27790987 0.33835742
00000000: 3f29 0c3f a5d0 e23e 344a 8e3e 2f3d ad3e
