_dueling_ddqn.Agent object at 0x7f1435dd2828__checkpoint.pth (torch_old, 46483 bytes, 10 tensors)

fc1.weight f4 [64, 37]
000000 e8 35 16 be 0e 6d ea 3d 61 cf 91 bd 6d d5 1c bd
       -0.14669001 0.11446582 -0.071196325 -0.038289476
000010 84 08 ac 3e b7 36 9a 3d e8 f9 ab 3b fe ad d8 3d
       0.33600247 0.07529967 0.005248297 0.105800614
000020 f7 df 6c 3d d5 75 2e 3d f0 a4 c8 3c 03 fa c0 bd
       0.057830777 0.042592842 0.02449271 -0.09422686
000030 a1 c5 67 be 56 54 72 be bc 28 87 be 40 1b 08 3e
       -0.22633983 -0.23664984 -0.26398265 0.13291645
000040 66 16 83 bd 6a be 12 be 72 62 ac bd 25 0c 74 be
       -0.064007565 -0.1433045 -0.084172145 -0.23832758
000050 f4 16 52 bb 64 fa 4a 3e 7d 37 9b bd bd 7f 83 3e
       -0.0032057138 0.19822079 -0.07578943 0.25683394
000060 82 09 43 3e ce ca bd bd 14 f3 ed 3d 33 9d 04 3b
       0.19046596 -0.092671975 0.11618629 0.00202353
000070 8d 13 bb bd 91 55 1c 3e c5 d0 7e 3c ac cb f0 bd
       -0.091345884 0.15267016 0.015552704 -0.11757597
000080 3b 87 89 bd 70 0c 89 be 8f 67 d6 be 87 00 7a be
       -0.06715246 -0.26767302 -0.41875884 -0.24414264
000090 88 68 3c bd 70 c9 22 3e b2 d2 35 3e c2 6f 4a 3e
       -0.045998126 0.15897155 0.17756155 0.19769195
0000a0 e2 68 78 3d 4f 33 89 bd 13 a4 35 bc 9b 0b d5 bd
       0.0606469 -0.066992395 -0.011086482 -0.10402604
0000b0 63 98 33 3d 63 32 f9 3d 86 7d 15 3e 96 03 47 3d
       0.0438465 0.12167814 0.14598665 0.048587404
0000c0 7e 89 c0 3d 47 5b 0e 3e 95 db e4 3c 91 06 30 3d
       0.094012246 0.13902007 0.027936736 0.042975012
0000d0 4e 11 f6 3d c5 65 2b bc 17 e0 a9 3d 39 87 84 3d
       0.12015019 -0.0104612755 0.08294695 0.06471104
0000e0 d0 ff f8 bd ab aa 73 bd d3 dc 50 3c 55 7b 25 3b
       -0.12158167 -0.059488934 0.012747961 0.0025250514
0000f0 ad 0c a3 3c ba ec 38 3d 8c c2 a2 3e 8d 9f 21 be
       0.019903505 0.045147635 0.31789052 -0.1578352
000100 4f e2 30 bf 55 49 cd be d1 14 d2 bf ec 27 32 3e
       -0.6909532 -0.4009501 -1.6412603 0.17398041
000110 9e c6 f1 3d 85 38 4d 3e e9 03 2f 3e 22 f2 12 b9
       0.11805461 0.20041092 0.17091335 -0.00014013847
000120 53 18 07 bd c2 76 85 bc 88 f9 d2 3d 7e 9e ce 3d
       -0.03298218 -0.01629198 0.103015006 0.10088824
000130 4b 45 12 3e 21 8f 2f bf 9c 39 d5 be a4 6c b8 be
       0.14284246 -0.6857777 -0.41645515 -0.36020386
000140 f0 2c b4 bd 7c f6 6a 3d 9e ab e7 3d 94 9b bc be
       -0.08797634 0.057363972 0.1131203 -0.36837447
000150 d0 59 3d be 68 4d 9a 3e 05 d7 97 be f5 a9 ad be
       -0.18491292 0.3013718 -0.29656234 -0.3391873
000160 29 1e 07 3f 8a 62 f9 be 33 2b c5 bb 75 91 22 3d
       0.52780396 -0.48707992 -0.0060171126 0.0396895
000170 ea b7 9c 3e 4f 95 f9 bd 5a 52 7a 3e ac 51 39 bf
       0.30609065 -0.121866815 0.24445477 -0.72390246
000180 0a 84 23 be f0 fb e5 be 27 88 12 bf dd f8 32 3e
       -0.15968338 -0.44918776 -0.57239 0.17477746
000190 2e 23 c7 3b 9a 73 56 bc 77 a4 12 bf 17 ed f0 bd
       0.006077192 -0.013089085 -0.57282203 -0.11763971
0001a0 69 69 ae be 2c 29 84 be 9f 7e 0c 3e d1 86 a4 be
       -0.34064797 -0.25812662 0.13720177 -0.32134107
0001b0 ee a9 04 be d8 94 98 3c 5b 9d 88 bd ec 1f 2b 3e
       -0.12955448 0.018625662 -0.06670638 0.16711396
0001c0 79 ff b0 3d 6c 55 a8 3d b4 9b 7d 3d 28 ec a6 bd
       0.086424775 0.08219418 0.06191607 -0.08150512
0001d0 3e 54 2a 3d af 1d f8 3b ac 9a 6a 3d 88 86 21 3e
       0.041584246 0.007571898 0.057276413 0.15773976
0001e0 17 17 93 3c 56 36 e4 ba de 16 15 bc 45 54 25 3d
       0.017955346 -0.0017411213 -0.00909969 0.04036357
0001f0 95 a1 89 3d 34 5a 0f 3c 42 ec 1c bd c6 57 07 3c
       0.067202725 0.008749533 -0.03831125 0.008260673
000200 07 76 a6 bc 16 4b 7e 3a c1 b1 44 bb 85 46 d3 3e
       -0.020319952 0.000970052 -0.0030013176 0.4126474
000210 76 ce 4b bf 96 c4 32 bf 19 1d 21 bf 6b 7d 0e c0
       -0.7961191 -0.69831216 -0.62935024 -2.226405
000220 b5 d1 44 3d d9 e9 0c 3e c4 aa ea 3d ea 75 ec 3d
       0.048051555 0.13761081 0.11458352 0.11545928
000230 fc 91 35 3e a5 05 e9 3d ea d7 12 3e 42 6c bb 3d
       0.1773147 0.1137803 0.14340177 0.09151508
000240 c5 c2 9b 3d d7 37 19 3c 05 5f b1 bc 99 e9 fa 3b
       0.07605509 0.009351692 -0.021651754 0.0076572415
000250 79 6e c1 bd 93 e6 0b be a5 89 49 bc dc 64 bb bd
       -0.09444899 -0.13662176 -0.012300883 -0.09150097
000260 8e 49 a0 bc 28 c7 68 bd 03 82 07 3d 01 8c c2 3d
       -0.019566324 -0.056830555 0.033082973 0.0949936
000270 fd f3 43 3e 29 d8 08 3e e2 32 d7 bd 3a 5b 32 3d
       0.19136043 0.13363709 -0.10507752 0.04354403
000280 42 c1 ba bc 1e 01 b9 bc b5 ec a7 bd 77 50 32 be
       -0.02279723 -0.02258354 -0.08199445 -0.17413507
000290 07 99 0e bd b3 d3 ee bb dc 2e 1f 3e 9b 07 fb 3e
       -0.034813907 -0.00728842 0.15545219 0.4902924
0002a0 92 73 47 bd 74 70 81 3d dd 45 8d 3d 3a b0 b6 3c
       -0.0486942 0.06320277 0.06898091 0.022300828
0002b0 48 ae 78 bd c1 37 94 3e b1 45 0c be fd 45 29 be
       -0.060713083 0.28948787 -0.1369846 -0.16530605
0002c0 2f 9f 1b bf 2a 6a 00 c0 06 cb e0 3d 7d dc 00 bd
       -0.6078977 -2.0064797 0.10976224 -0.031460274
0002d0 c3 33 20 3e e0 91 f8 3d 4b 13 db 3d 36 5e 90 bc
       0.15644746 0.121371984 0.10697039 -0.017623048
0002e0 5e 67 50 bc fd c8 aa bb f4 78 db 3a 37 43 a3 bd
       -0.012719957 -0.005211948 0.0016744421 -0.079718046
0002f0 4d 7e d3 bd c5 cc 6c be 9f fa bc 3e c7 4e 13 3e
       -0.10326824 -0.23124988 0.3690996 0.1438552
000300 19 b6 98 be 03 64 b5 be 6a 34 10 c0 65 43 18 be
       -0.2982643 -0.35427865 -2.253199 -0.14869459
000310 29 ba 43 bd 32 08 7d bd bd fd 99 3d d6 1e 46 be
       -0.047784958 -0.061775394 0.075191 -0.193477
000320 20 3e 18 bd 65 3a e1 3c 66 a3 dc 3c 0d 0f 8b bd
       -0.037168622 0.027493665 0.026933383 -0.0678998
000330 84 8e c1 3d 36 f1 41 bb a4 8b df 3d c7 ae 15 3e
       0.09451011 -0.0029593236 0.10915306 0.14617454
000340 b2 73 21 3d d3 2d 94 3d 86 14 0c bd 90 dc 69 3d
       0.039416976 0.07235303 -0.03419926 0.05709511
000350 cf 47 16 bd 33 10 00 3e 3b 76 eb 3d d0 f6 cd bd
       -0.036689576 0.1250618 0.1149716 -0.100568414
000360 86 95 01 3e 60 e0 28 3d bc 8d e3 bc 39 5a 5e be
       0.12654695 0.041229606 -0.027777545 -0.21714105
000370 6d 14 ad bc d8 dc 14 bc 3e 0f c2 3d d5 46 10 3e
       -0.021127904 -0.009085856 0.094755635 0.1408952
000380 4f ea 89 bd f9 e0 12 bf 2f b4 8e 3d f1 78 a9 be
       -0.06734144 -0.5737453 0.06967961 -0.33100083
000390 9c c4 82 3e 89 14 e5 bd a8 cf d1 bd f1 e8 f3 3b
       0.25540626 -0.111855574 -0.102446854 0.0074435403
0003a0 0d dd 06 be 81 be 66 be 16 6b 4d 3e 63 a2 4d 3e
       -0.13170262 -0.22533609 0.20060381 0.20081477
0003b0 25 b2 0a be aa 96 b3 bd 7c 4c 78 be 99 6e 8d 3e
       -0.13544519 -0.08768971 -0.24247926 0.27623442
0003c0 30 aa 97 be 1b 31 e7 bc 3f d4 35 be 75 2f 02 bf
       -0.2962203 -0.028221657 -0.17756747 -0.50853664
0003d0 d2 07 6b 3e f4 08 29 3e 8f f8 ad 3e 81 48 e8 be
       0.22952202 0.16507322 0.33978698 -0.45367816
0003e0 d5 e8 7e 3d 5d 52 78 3d 94 a8 0d 3e 3f cf 13 3c
       0.062233765 0.060625423 0.13833839 0.009021579
0003f0 f4 c8 c3 bd ae f8 14 be 90 23 32 3e 05 bf f0 bd
       -0.09559813 -0.14547989 0.17396379 -0.11755184

fc1.bias f4 [64]
000000 5b 1f a3 3c 12 bf 85 3d 0a c1 38 be 40 ac e8 bc
       0.019912412 0.065305844 -0.18042389 -0.028402448
000010 dd f3 21 3e a0 e6 90 bc f2 21 c8 bd 55 2b 5c 3d
       0.15815683 -0.017688096 -0.097720996 0.053752262
000020 cd 0b 37 bd 2d f2 b8 3d 40 8f e1 3d 3c 9f 68 3e
       -0.04468899 0.09030566 0.11013651 0.22716993
000030 e5 3b a4 3d e0 39 91 3d d8 b6 33 bd 9d 99 a0 bd
       0.080192365 0.07091117 -0.043875545 -0.078417994
000040 fb e4 4b bd 83 08 57 bd 10 38 ac bd 99 e9 fc bd
       -0.04977892 -0.05249835 -0.084091306 -0.12349243
000050 fe e0 e7 bc e6 e7 48 bd 05 68 3a bd 2e 11 95 bd
       -0.028305527 -0.04904928 -0.045509357 -0.072786674
000060 dd 08 f3 bd 1c d7 59 3e 74 22 82 3d af 7e 67 bc
       -0.11866925 0.21273464 0.06354228 -0.014129325
000070 95 f7 12 3e 93 77 2c 3e b7 d6 d4 bd f9 c5 e9 bd
       0.14352258 0.16842489 -0.10392516 -0.114147134
000080 52 00 9f 3d 0d e7 18 bd 7b bd 24 be be 3f 14 3d
       0.07763733 -0.037329722 -0.16087906 0.0361936
000090 f4 c3 20 bd 0c 89 a4 bc d6 45 f4 3b 7a 5d 5a be
       -0.039249375 -0.02008488 0.007454614 -0.21324721
0000a0 1b 20 c7 bd 30 ad 33 bc b8 59 21 bd 4b cd 91 3d
       -0.097229205 -0.010966584 -0.039392203 0.07119235
0000b0 33 c0 4b bd 5b 4b a0 bd fb 67 b6 3c 2c 06 81 be
       -0.049743842 -0.07826873 0.022266379 -0.2520002
0000c0 7c 5b 8d be 79 2c 32 bd d4 39 90 be 74 ab 8a bd
       -0.2760886 -0.043499444 -0.2816912 -0.06770983
0000d0 8b b9 9a bd 15 53 11 bd 7e 9f 40 be c1 90 14 3c
       -0.07554921 -0.035479624 -0.18810841 0.009067715
0000e0 fc 7f ce bc ad 47 da bd 82 20 09 bd 51 23 23 be
       -0.025207512 -0.10658202 -0.033478267 -0.15931441
0000f0 97 f5 67 bc 0a 7c 87 3d 48 a1 b9 bc 31 26 89 3d
       -0.014157674 0.066154554 -0.022659913 0.066967376

fc2_value.weight f4 [64, 64]
000000 3d fc 8d 3d cd 8d b0 3e 67 98 c2 be 2b a9 9f bd
       0.06932876 0.34483185 -0.380069 -0.07795938
000010 cb a2 9c 3e 44 9f 1f be 16 09 9f bd a2 6d c4 3d
       0.3059295 -0.15588099 -0.07765405 0.09591223
000020 ac e3 40 3e d6 01 66 bd f4 19 51 be d0 7e 73 be
       0.1883685 -0.056154095 -0.20420057 -0.23778844
000030 0f ba 12 be 7a 2f 09 be f0 bc f2 3d 2b a5 e4 3c
       -0.14328788 -0.13397017 0.11852443 0.02791079
000040 25 86 11 be 5a aa 13 3e cd 77 02 be d4 8a bc be
       -0.14211328 0.14420453 -0.12741013 -0.36824667
000050 1e 63 d5 bd 71 c9 10 be d6 6c 52 bc bd 64 7c bc
       -0.10419296 -0.14139344 -0.012843331 -0.015404877
000060 ad 3b 0b bf b0 b5 99 3d 97 83 25 3d 34 25 60 3d
       -0.54387933 0.07505357 0.040408697 0.05472298
000070 fc 0a 38 3d 79 34 88 be a4 89 23 be a3 73 2c be
       0.04493235 -0.26602533 -0.15970474 -0.16840987
000080 3d fd cf 3d 0e 65 e8 be 38 11 1c 3d 6a 15 ae 3e
       0.10155723 -0.453896 0.03810236 0.34000713
000090 98 d1 40 be 2f 63 a8 bd 01 76 6b be 1f 75 6d 3d
       -0.18829954 -0.08222043 -0.22994234 0.057973024
0000a0 eb cd d3 3c 1a 08 58 be 36 03 42 3e 5b 16 64 bc
       0.025855025 -0.2109684 0.18946537 -0.013921346
0000b0 0a 99 56 3c 7c bc b5 bc ca 7f c3 bd 4d bb 38 3d
       0.013098011 -0.022184603 -0.09545858 0.0451005
0000c0 78 fa 00 be e7 12 fe 3d f4 5e b0 bd b6 3f fc 3d
       -0.12595546 0.12405949 -0.08611861 0.123168394
0000d0 be b7 0e bc 23 65 c9 3e 02 2b e9 be 3b 22 56 bc
       -0.0087108 0.39334974 -0.45540625 -0.013069685
0000e0 d7 3a 24 3b bc f4 f5 bc 34 f0 7d be ef 28 b5 bc
       0.0025059485 -0.030023925 -0.24798661 -0.022114245
0000f0 2d 99 91 3e 6a b8 24 3e 01 3a 9b be fa 64 70 bd
       0.28437176 0.16085973 -0.3031769 -0.05869005
000100 19 fe cd 3d 26 31 ce 3d 86 46 9d be 92 81 ca 3d
       0.10058231 0.10067968 -0.30717868 0.09887995
000110 75 b9 9d 3e e8 c3 12 3e 1d fd e6 bd 89 0e 08 bb
       0.30805555 0.14332545 -0.11278746 -0.0020760617
000120 36 21 f5 bc 0d d8 47 bd bf 81 7b be 7f e7 8c 3e
       -0.029923063 -0.048790026 -0.24561213 0.27520368
000130 bb a3 26 3c a4 b9 23 be 47 76 a5 bd 75 8c ac be
       0.010170872 -0.15988785 -0.080792 -0.3370091
000140 d1 fe 97 be aa 38 20 3d a5 ab 49 3e c1 17 a0 3d
       -0.29686597 0.03911654 0.19694383 0.07817031
000150 60 c3 48 bd 1f 7f 26 bd e3 9f b9 bd e8 bf df be
       -0.04901445 -0.040648576 -0.09063699 -0.437011
000160 81 06 a1 3d 7e 29 ad 3d b3 d4 76 bd 8d c5 8d 3c
       0.07862569 0.0845518 -0.06026144 0.017306114
000170 b3 ab 6f 3d 83 b9 15 bf 24 5d 7d be 9a 08 30 be
       0.058513355 -0.58486193 -0.24742562 -0.17190781
000180 cb 5d 0d bd 06 ea f0 3c 7b 17 83 3d 15 47 f0 bd
       -0.034513276 0.029408466 0.06400963 -0.11732308
000190 29 5f 9f bd 50 4d e8 3c dc 81 98 bd 76 80 00 be
       -0.07781822 0.028357178 -0.07446644 -0.12549004
0001a0 b3 c3 cc bd 08 a6 10 3f e5 c4 92 bb f4 87 02 3d
       -0.09998264 0.56503344 -0.004479038 0.031867936
0001b0 b9 37 15 3d 17 bb f9 bb 2b 18 bd bd a0 9e eb 3c
       0.036430094 -0.00762118 -0.09233125 0.028762162
0001c0 15 e7 8a ba a4 3a 60 bb 7b 74 ba 3e 10 cb 06 3e
       -0.0010597432 -0.003421464 0.36416993 0.131634
0001d0 18 b6 0c bd e3 4e 5b 3e 61 10 ac bd d9 3a 78 3d
       -0.034353346 0.21416812 -0.084015615 0.060602996
0001e0 41 fa 79 be da 2a 5e bd ac 75 29 3e 6f e7 4b 3d
       -0.2441187 -0.054240085 0.16548795 0.04978126
0001f0 e0 d2 b9 be e7 87 72 3d 47 6a 08 3d 45 5e 2d be
       -0.36293697 0.059211638 0.03330448 -0.16930492
000200 07 b3 bc bd b0 ac 85 3d c0 a1 ec 3c fe 78 ce 3e
       -0.09213834 0.06527078 0.028885722 0.40326685
000210 e5 a3 85 3e 4e 38 5c 3d 03 f8 07 be b6 bd 9a 3c
       0.26101604 0.053764634 -0.13278203 0.01888929
000220 55 a5 bf 3d 94 16 42 bd 17 97 a2 3d c4 4a 85 3e
       0.093577065 -0.047384813 0.07938974 0.26033604
000230 bf b5 20 be 45 74 8b be 7a c2 07 3c df 7b 2b be
       -0.1569433 -0.27237144 0.008286113 -0.16746472
000240 e1 0b d4 bd f5 a1 2f bc e3 db 04 be 25 1f 08 bf
       -0.10353828 -0.010719766 -0.12974505 -0.5317252
000250 d4 6b 51 be 54 d2 5c 3d cd 6b c4 be 09 6b 93 bd
       -0.2045129 0.053911522 -0.38363495 -0.0719815
000260 59 82 45 3e dc 97 b6 3d ad e4 48 3d 06 a6 59 3e
       0.19288005 0.089156836 0.049046207 0.21254739
000270 64 16 bb bd b9 61 83 3e b7 06 14 be a3 55 55 be
       -0.0913513 0.25660494 -0.14455687 -0.20833449
000280 c4 2d 95 bd c8 cf d9 3d 4f c1 17 be 95 30 96 3e
       -0.0728412 0.10635334 -0.14819835 0.2933394
000290 c6 ae ab 3d fd b6 f6 bd 84 40 23 3e 0a 29 59 3e
       0.08382945 -0.12046621 0.1594258 0.21207061
0002a0 b5 38 84 3e 8c 80 aa be 3d b2 28 be 47 4a e7 3c
       0.25824514 -0.33301198 -0.16474243 0.02823366
0002b0 2c ec ec bd 58 41 ea 3c 4f 8e a8 bd 43 fe a9 bd
       -0.11568484 0.028595611 -0.08230268 -0.0830045
0002c0 50 b5 c8 3c 22 7c 28 3e 1b 09 ee bc 09 47 4c 3d
       0.024500519 0.16453603 -0.029057076 0.049872432
0002d0 cd c7 f4 bd b6 56 9f 3e 56 f4 39 be cd 75 08 bc
       -0.119521715 0.31120843 -0.18159613 -0.008328867
0002e0 10 5f f5 bd 4b 49 0c be 64 bb 28 3e b8 a7 51 3e
       -0.11981022 -0.13699834 0.16477734 0.20474136
0002f0 df 9f f1 be cf e3 1b 3e b6 52 6f 3b 40 8d 7f bd
       -0.47192284 0.15223621 0.0036517805 -0.062390566
000300 f6 dc 40 be 28 c1 87 be 88 ea 90 bd 06 fd a4 be
       -0.1883429 -0.26514554 -0.07075983 -0.32224292
000310 ed fd cd bd 02 a4 1d be 99 51 bf 3c df a3 1d 3d
       -0.10058198 -0.15394595 0.023354338 0.038486358
000320 11 90 c7 be f9 55 3a bc a3 14 c7 3d be e3 dc bd
       -0.389771 -0.011373037 0.09720733 -0.10785626
000330 0b ad e2 bd 97 14 5d 3f ce d9 97 3d 9a a8 85 3e
       -0.110681616 0.8635954 0.0741459 0.26105195
000340 76 39 61 be 4a d3 90 3c 7d be 67 3d c6 45 f6 3d
       -0.21994576 0.017678875 0.05657815 0.12025027
000350 28 f9 cc 3d d0 29 01 be 87 bf 30 3e f5 bd 3f 3e
       0.1000846 -0.12613606 0.17260562 0.18724807
000360 5f 5a 97 bd bf 0f d6 bd fb 8f 00 3c 3a b9 9c 3c
       -0.07390284 -0.10452222 0.007846828 0.019131292
000370 9f b2 78 3e 58 dd 23 bf e2 06 c2 bd 2f 99 2f bd
       0.24286889 -0.6400962 -0.09473969 -0.042870697
000380 63 23 0b 3d 29 44 d5 3d de 1c 0f 3d 60 04 9b 3c
       0.033969294 0.10413391 0.03493964 0.018922985
000390 b4 47 83 be b9 66 c7 3d 77 f2 7a 3c 9e 8d 7d bd
       -0.25640643 0.0973639 0.015316597 -0.061902635
0003a0 60 80 f4 be 57 73 c3 be f2 bf 53 3d 0a 11 82 3d
       -0.47754192 -0.38173935 0.051696725 0.06350906
0003b0 bd a3 e9 bd 50 12 35 3d 58 ad c0 be b1 f6 59 be
       -0.11408184 0.044206917 -0.3763225 -0.21285512
0003c0 72 00 c3 3b 00 19 fb bc 88 85 9c 3d e5 db 32 3d
       0.005950981 -0.03065157 0.076426566 0.04366674
0003d0 85 08 ba bc 41 d9 ee bd 5f 6b e5 bc 3a 05 20 be
       -0.02270914 -0.11662532 -0.0280053 -0.15626994
0003e0 dc b2 14 3d fc 9d 93 bb d7 c7 d2 be 43 3d 21 bd
       0.036303386 -0.004504917 -0.4116809 -0.039365064
0003f0 5b 53 d3 be ac 13 3a 3e 01 8a 55 be 54 bd 04 be
       -0.41274533 0.18171567 -0.20853426 -0.12962848

fc2_value.bias f4 [64]
000000 8a 82 89 3d 6f f2 3a 3e 15 cf 5d 3e b0 bf c5 bc
       0.067143515 0.18256544 0.21661027 -0.024139255
000010 c4 21 40 bd d7 eb a6 bb 06 35 88 bd c6 12 dd bb
       -0.0469072 -0.0050940323 -0.066507384 -0.0067466227
000020 3e 7c 28 3e 5c 4d 5a 3f b8 b9 43 bd d1 6d 0d 3f
       0.16453645 0.8527429 -0.047784537 0.5524569
000030 01 f2 05 3f d1 1a e4 3d 22 21 b9 bd 54 9c a1 3e
       0.52322394 0.11137927 -0.09039523 0.3156458
000040 6b 4d ad 3d b5 d2 f7 bd f0 51 a3 bd 2c 3a 93 3c
       0.08462032 -0.12100736 -0.07974613 0.017972074
000050 f1 b0 3b 3f 4d e8 3b 3f 29 86 57 be f4 42 9b bd
       0.73316866 0.7340134 -0.21047272 -0.0758113
000060 12 72 13 bd 6b 74 8a be 27 be 8b 3d b2 0e 10 be
       -0.035997458 -0.27041945 0.06823378 -0.14068106
000070 49 f8 12 be e1 1e 2f 3f ab 83 70 3d 21 f8 56 be
       -0.14352526 0.6840649 0.05871932 -0.20993091
000080 01 2d 91 be c3 63 cb 3c f0 ea a5 3e 0c 16 dd bd
       -0.28354648 0.024827844 0.32405806 -0.10795221
000090 7e 3f 9f bd 11 90 7e be b8 e8 aa 3e b5 74 23 3e
       -0.07775782 -0.24859644 0.33380675 0.15962489
0000a0 95 e3 21 3d 8e c4 ae 3e 52 62 41 3f 12 f7 3f bd
       0.03952368 0.34134334 0.7554065 -0.046866484
0000b0 47 c1 f7 3e c8 23 ad be 75 7a 29 bc 8e ae 35 be
       0.48389646 -0.3381636 -0.010344137 -0.17742369
0000c0 f5 e9 8c bc 2f 19 10 be 72 a6 10 be ea eb 5c 3f
       -0.017201403 -0.14072107 -0.14125994 0.86297476
0000d0 1e bf 2f bd e4 69 9c be aa c6 bd 3d ce 1c b0 be
       -0.042906873 -0.30549538 0.09266408 -0.34396976
0000e0 99 43 8e be a6 76 36 be 6e 50 01 bd d2 12 5f be
       -0.27785948 -0.17818698 -0.031570844 -0.21784523
0000f0 c2 86 ac bd 41 ac 45 3e c9 6f d5 bd 1c fb 68 be
       -0.084241405 0.19303991 -0.10421712 -0.2275204

fc3_value.weight f4 [4, 64]
000000 b9 f8 61 3e 9f 9c 54 3e b2 76 22 3e be 3c d1 3e
       0.22067536 0.20762871 0.15865591 0.40866655
000010 1e cc 83 3d 73 25 c4 3e c7 53 1c 3c 38 24 c7 be
       0.06435417 0.3830982 0.009541458 -0.3889482
000020 0f 72 e2 3d 94 f7 68 3e 2e e5 fa 3c 4d 91 a4 3e
       0.11056911 0.22750694 0.03062686 0.32142106
000030 2b 1d 0e 3e fd c0 aa 3d 10 27 3c 3e 54 ae d8 3d
       0.13878314 0.08337591 0.18374276 0.105801255
000040 ef cb 03 3f 10 5c 56 3c 38 02 1f 3e 63 df 49 3e
       0.5148305 0.013083473 0.1552819 0.19714122
000050 32 d1 59 3e c0 25 86 3e 9d 59 1b bc ca b1 76 be
       0.21271208 0.26200676 -0.009481815 -0.24091259
000060 e4 ee 18 bd ab d5 4f be 08 fb 07 bf 1b 6c ca be
       -0.0373372 -0.20296352 -0.5311742 -0.39535603
000070 0b 8c c8 3d 71 69 40 3e 28 c0 b1 bd df bf 2b bd
       0.09792336 0.18790223 -0.08679229 -0.04193103
000080 d9 68 c3 be 17 e0 f9 3e b3 40 aa 3e d3 de e2 bc
       -0.3816593 0.4880378 0.33252487 -0.027694141
000090 0a 2c 86 3e 96 cc 13 be da 31 8e 3e 30 2d 54 3e
       0.26205474 -0.14433512 0.2777241 0.20720363
0000a0 53 59 4a 3e ab d3 15 3e 81 89 62 3e 31 ff 8d 3e
       0.19760637 0.14631526 0.22122766 0.27733758
0000b0 3f ad 37 3e a7 d8 b1 be 8e 16 76 3e 55 69 6c bc
       0.17937182 -0.34735605 0.24032041 -0.01442941
0000c0 f6 8f 0d 3f 85 5c be 3d f1 7f e5 3d 4d ce 80 3e
       0.5529779 0.092949905 0.112060435 0.25157395
0000d0 55 1b 93 3d 61 59 1e be 6f 53 a9 3e 81 7c 0d be
       0.071829475 -0.15463783 0.33071467 -0.13817026
0000e0 29 8e a7 be e9 c0 b0 3d 6d da 02 3c a7 13 83 be
       -0.32725647 0.08630545 0.007986647 -0.2560093
0000f0 55 5c 0a bd 65 02 cd 3d 7a 9d de 3d 60 cf e0 3b
       -0.03377946 0.10010222 0.1086988 0.0068606585
000100 99 61 4e 3e b8 39 6a 3e d8 b8 4d 3e 8a ea f1 3e
       0.20154418 0.2287358 0.20090044 0.47249252
000110 f5 5e 32 3e 63 bc 33 3e 19 b8 9b 3e f1 b3 20 3e
       0.17419036 0.17552333 0.30413893 0.15693642
000120 75 cf 86 3e 5e d1 57 3e 32 0e a7 3d 85 a9 8d 3e
       0.26330152 0.21075961 0.081570044 0.27668396
000130 94 15 5f 3e 45 ad c7 3d 31 5b 5a 3e 9b 14 72 3e
       0.21785575 0.097498454 0.2132385 0.23640673
000140 07 1b 96 3e 71 48 0c 3c 5d cd 95 3d cc 1b 6e 3e
       0.29317495 0.008562193 0.073145606 0.23252791
000150 99 49 6d 3e f2 fe 8c 3e 24 c0 68 3d 73 2d c7 3e
       0.23172607 0.27538258 0.056823865 0.38901863
000160 19 78 07 be 6b bd 22 be ee 3a 51 3e 6e 60 db 3e
       -0.13229407 -0.1589257 0.20432636 0.42847008
000170 d4 25 82 3d 12 d6 49 3e 23 02 04 3c da 8a a2 3d
       0.063548714 0.19710568 0.00805715 0.0793664
000180 e8 a0 55 be 5f 7a d8 3e c8 da 6e 3e 2e 0f 94 bd
       -0.20862162 0.42280862 0.23325646 -0.07229458
000190 c8 93 b5 3e 7e 22 79 be 33 73 92 3e 2d ff 6e 3e
       0.3546431 -0.24329564 0.28603515 0.2333953
0001a0 26 da 43 3e 65 3f 29 3e 27 97 7e 3e 23 84 94 3e
       0.19126186 0.1652809 0.24862348 0.29007062
0001b0 0f b4 64 3e 5a e9 41 be 6a 34 9f 3e de cc bf be
       0.22334312 -0.18936673 0.31094676 -0.3746099
0001c0 41 d2 f2 3e 68 b4 3b 3e e3 94 dd 3d f2 d1 82 3e
       0.47426036 0.18330538 0.108194135 0.255508
0001d0 bb da d8 3d fb 5b 24 be 02 ae aa 3e 5a b6 0c be
       0.105885945 -0.16050713 0.33335882 -0.13741437
0001e0 38 bf ea bd e1 88 60 bd 30 58 ad 3d e0 11 63 be
       -0.11462253 -0.054818038 0.08464086 -0.22174788
0001f0 2e c4 6c bd 5e 0f 1e 3e 9b ab 21 be f4 02 a8 bc
       -0.05780428 0.1543555 -0.15788119 -0.02050922
000200 68 9b 8e 3e 7c 50 4c 3e 10 c6 8d 3e 2f db 2e 3f
       0.2785294 0.19952577 0.27690172 0.683032
000210 64 9c da 3e fd a0 96 3d 71 58 91 3e d0 c8 86 3e
       0.42697442 0.07354925 0.28387788 0.26325083
000220 18 76 48 3e d2 83 67 3e ba 9f 76 bd 5d ec 86 3e
       0.19576299 0.22608879 -0.06021092 0.26352206
000230 b0 ac 92 3e 19 13 d0 3d b6 2e 6d be 6b d1 39 3e
       0.28647375 0.101598926 -0.2316235 0.18146293
000240 dd e4 83 3e b8 3c d4 3b 90 ce d8 bd 10 13 1d be
       0.25760546 0.006476965 -0.10586274 -0.15339303
000250 c6 6b 2a 3e 09 b6 a5 3e bf 36 db be 25 7a 31 3e
       0.16642675 0.32365444 -0.42815205 0.1733175
000260 e0 38 d9 3d 25 73 33 bd 5c 0e a4 bd dd cb 55 3e
       0.10606551 -0.043810982 -0.08010551 0.20878549
000270 6c 79 7d 3e f6 f8 7d 3e 16 e2 be 3e 7f 99 c5 bc
       0.2475335 0.24802002 0.37281865 -0.024121044
000280 90 af 89 be 53 34 9d 3e e0 6f 29 3e 21 85 a6 3d
       -0.26891756 0.30703983 0.16546583 0.08130861
000290 be 68 91 3e a5 58 53 be 5d 7b 76 3e 92 b7 49 3e
       0.28400224 -0.20639284 0.24070497 0.19698933
0002a0 40 f1 5e 3d db 7f 08 3e a6 f7 82 3e bc 59 98 3e
       0.054429293 0.13330023 0.25579566 0.29755962
0002b0 5e 99 1e 3e 34 9f 92 be a2 a7 93 3e 60 a9 87 3e
       0.15488192 -0.28637087 0.2883883 0.2649641
0002c0 7a e9 11 3f 51 5f a6 3e ef ac fd be 1d 80 84 3e
       0.5699688 0.32494596 -0.49546 0.25878993
0002d0 e2 bc 59 3e 90 ff 93 bd e8 54 aa 3e 60 88 48 bd
       0.2126346 -0.07226479 0.33267903 -0.048958182
0002e0 81 49 6e bd 70 70 7b be 3f 9a c9 be 74 c7 a5 be
       -0.058175568 -0.2455461 -0.39375493 -0.32378733
0002f0 b8 4d ab be f2 5f 2c 3e d5 ca 14 3c 1f 54 68 bd
       -0.33457732 0.16833475 0.009081562 -0.05672085
000300 bd 6e 95 3e 1b b0 74 3e 81 1c 46 3e fb 95 32 3e
       0.2918605 0.23895304 0.19346811 0.17440026
000310 f6 5b 54 3e 99 15 97 3e b1 73 be be 44 94 5e 3d
       0.20738205 0.29508665 -0.3719764 0.054340616
000320 2b 0d b9 3e 55 04 65 3e 35 f5 1d 3e 25 cb 68 3e
       0.3614286 0.22364934 0.1542557 0.22733743
000330 e1 a0 5f 3e 19 9e 75 3e 00 df ad 3e 9a e4 3d 3e
       0.21838714 0.2398609 0.33959198 0.18544236
000340 3e 89 ac 3e 8b 43 6c bc 1e ee 94 3e 22 6a c9 3e
       0.33698457 -0.0144204 0.2908792 0.39338785
000350 51 85 5e 3e 7b cc 9b 3e 94 06 8e be 8d 1c 0f 3f
       0.21730544 0.30429444 -0.27739394 0.5590294
000360 e7 1f a2 bd b7 64 ab be 96 c1 31 3e 77 33 ca bd
       -0.07916241 -0.33475277 0.17359003 -0.098730974
000370 ba 5d 63 3e c4 6d 1b 3e 84 b6 8c 3d 64 b2 b3 be
       0.22203723 0.15178591 0.068707496 -0.3509704
000380 f0 bb 80 be 36 76 b1 3e 44 e8 12 3e 28 8d c1 bb
       -0.25143385 0.346605 0.14346415 -0.0059067197
000390 fc 90 84 be 6b 1d 7a be 62 42 7f 3e 62 50 0b 3e
       -0.25891864 -0.24425285 0.24927667 0.13604882
0003a0 33 50 4e be 1b 2d 78 3e f3 47 89 3e 78 13 af be
       -0.20147781 0.24235956 0.26812705 -0.3419454
0003b0 07 a8 4c 3e 69 ce 70 be 1e 7c aa 3e 81 c2 e2 3c
       0.19985972 -0.23516239 0.3329782 0.027680637
0003c0 7d 04 c4 3e 42 6c f6 be f4 fe ee 3e e9 a3 97 3e
       0.38284674 -0.4812947 0.4667889 0.2961724
0003d0 42 41 3d bc 88 08 4b bc 13 8b 30 3e c9 0c 9b 3d
       -0.011551203 -0.012392171 0.17240553 0.07570798
0003e0 50 d0 96 be a7 01 6f be 9c 9b 93 be 03 92 28 bc
       -0.29455805 -0.23340474 -0.28829658 -0.010288718
0003f0 87 63 2e 3e a2 14 f0 3d be 27 82 3a 1c a1 13 be
       0.17030154 0.117226854 0.0009930057 -0.14416927

fc3_value.bias f4 [4]
000000 90 19 d9 3e 25 43 68 3e ec ba 80 3e cc 10 9e 3e
       0.42402315 0.22681864 0.2514261 0.3087219

fc2_adv.weight f4 [64, 64]
000000 28 04 5f bd 64 aa bc bd 80 9e dc 3b e4 21 c2 bd
       -0.054447323 -0.09212187 0.006732762 -0.094791204
000010 20 e5 bc bb d0 21 8c bc e2 3d c6 bd ec 27 67 bd
       -0.0057646185 -0.017105967 -0.09679772 -0.056434557
000020 d8 cc 5f 3d 00 c8 12 bd 32 f2 e1 bd 8e 45 d0 3d
       0.054638714 -0.035835266 -0.11032523 0.101695165
000030 0c a1 1f bd 10 d5 76 3c 40 de cd 3d e8 f0 7e 3d
       -0.038971946 0.0150654465 0.100521564 0.062241465
000040 c6 eb ce bd 3e 1f e2 3d c4 b8 0e bd 2c 9b 02 3d
       -0.10103564 0.11041115 -0.034844175 0.031886265
000050 ac ef 63 3d 7c b6 32 3d 24 fa ae 3d 54 0e 67 bd
       0.05564849 0.043631062 0.08543804 -0.05641015
000060 cc 40 be 3d ac bb a2 3d 72 85 e0 bd 30 e4 3e bd
       0.09289703 0.07945952 -0.10962953 -0.046604335
000070 c6 3b dd 3d 84 02 be bd da a3 e7 bd 8a 1a 9e 3d
       0.108024165 -0.092778236 -0.11310549 0.07719906
000080 c4 6a 34 3d 00 8c 60 3c d6 23 cc 3d 20 b0 c9 3b
       0.044047132 0.013705254 0.09967773 0.006155029
000090 64 9e f9 3d 96 e2 a9 bd 88 03 dc bd 30 ae de bc
       0.12188414 -0.08295171 -0.10742861 -0.027182668
0000a0 9c df f8 3d 18 e1 da bd e4 3a 53 3d 48 1a 03 3d
       0.12152025 -0.106874645 0.051569834 0.032007486
0000b0 5c cd 58 bd f4 f1 d1 bd 90 63 56 3d ac 02 40 3d
       -0.05293022 -0.10251227 0.052341044 0.046877548
0000c0 c0 43 56 bb 80 4e 4a 3d 96 fe 8b 3d 52 4e b4 bd
       -0.003269419 0.04939127 0.06835668 -0.08804001
0000d0 0a 4b dd bd 40 47 aa bc 70 5e 93 bc e0 a9 44 bd
       -0.10805328 -0.020785928 -0.017989367 -0.048013568
0000e0 d4 c1 06 3d 5a 73 c4 bd 04 c2 f8 3d 70 10 ce bc
       0.032899693 -0.09592314 0.121463805 -0.025154322
0000f0 c8 ff 8e bd d0 9e a3 bc 10 b6 ca bd a4 84 dd bd
       -0.0698238 -0.019973189 -0.09898007 -0.10816315
000100 ac 2c 14 3d 7c 82 0c bd 18 a1 8a bd 34 20 6c 3d
       0.036175415 -0.034304127 -0.067690074 0.0576479
000110 5a fa c7 3d 10 a2 65 3c d8 23 7f bd e6 4e 8b 3d
       0.09764548 0.0140156895 -0.062290043 0.06802158
000120 a4 52 30 bd 0c 02 6d bd 98 a5 c7 bc 68 d4 f8 bc
       -0.043047562 -0.05786328 -0.024370953 -0.03037472
000130 dc 23 f7 3d 10 c7 b7 bc 80 7f e6 bd 54 9a 22 bd
       0.120673865 -0.022433788 -0.112547874 -0.03969796
000140 1c d3 3b 3d 0c 65 5d 3d 04 bb ab bd 24 55 b4 bd
       0.045855626 0.054051444 -0.0838528 -0.08805302
000150 00 ae 11 bd f0 f5 02 3c f0 ac d2 bd 0c b5 6b 3d
       -0.03556633 0.007993206 -0.102868915 0.057545707
000160 a8 2f c0 bc 2e eb 94 3d 50 98 18 3d f8 67 a3 bc
       -0.023460224 0.072714195 0.03725463 -0.019947037
000170 a0 d3 38 bc b8 63 1d 3d 08 08 85 bd f0 ba 04 bd
       -0.011280924 0.038425177 -0.064956725 -0.03240484
000180 a8 52 6a 3d 3a 7d e4 bd 20 dc cb bc 78 27 d5 3c
       0.057207733 -0.111566976 -0.024885237 0.026019797
000190 d4 05 84 bd 78 62 72 3d 98 a0 7d 3d a8 75 94 bc
       -0.06446424 0.05917594 0.061920732 -0.01812251
0001a0 30 83 24 bd 88 cd 77 3d e0 be e6 3b 7a f2 c5 bd
       -0.040164173 0.060498744 0.007041797 -0.09665389
0001b0 e2 8a 93 3d d4 03 fc 3d 80 19 db 3d f4 37 8d bd
       0.07204224 0.12305418 0.10698223 -0.06895438
0001c0 42 ac ed 3d 08 60 55 bd c6 fd c1 bd aa 52 b7 3d
       0.11605121 -0.052093536 -0.094722316 0.08951314
0001d0 e4 87 b4 bd 68 4e eb 3d ac e4 fa 3d 4a 0f ac bd
       -0.088149816 0.11489564 0.12250647 -0.08401354
0001e0 86 89 a9 3d 78 44 c3 bc 04 20 05 bd f0 5a 9b 3c
       0.08278184 -0.02383636 -0.032501236 0.01896426
0001f0 9c 61 41 3d a4 3c ae bd ae 0a fb 3d 30 60 b3 3d
       0.04721223 -0.0850766 0.12257896 0.08758581
000200 2a e6 93 bd 34 c6 71 3d 00 cd b5 3c 40 b0 8c 3d
       -0.07221635 0.05902691 0.022192478 0.068695545
000210 80 c3 3e bb d8 35 2d 3d c4 17 0f 3d 32 3e ef 3d
       -0.0029108226 0.042287678 0.034934774 0.11681785
000220 48 5a 90 3c ca aa d0 3d 60 6b a9 3c 44 ea 24 3d
       0.017621174 0.101888254 0.020681083 0.040262476
000230 90 16 64 bc d0 6d 5e bc 0a 68 c0 bd f2 12 f6 3d
       -0.013921395 -0.013575986 -0.09394844 0.12015332
000240 ba 81 8a bd 44 fd 85 3d a0 42 ec 3c 8a 03 a6 3d
       -0.06763025 0.06542447 0.028840363 0.08106144
000250 d8 49 f2 bd a0 0f 3f bc f0 58 f5 bd 00 82 c9 bd
       -0.11830491 -0.01166144 -0.11979854 -0.09839249
000260 f4 cc 34 3d a0 e8 f1 bc b2 fc aa 3d cc fa be 3d
       0.04414077 -0.02952987 0.08348979 0.093251795
000270 00 8e a0 39 dc 08 18 bd f4 92 b1 3d 0c 16 f4 3d
       0.00030623376 -0.037117824 0.08670607 0.119182676
000280 d0 8d 77 3c 76 a4 d5 bd 90 0e 56 3d 18 eb aa bc
       0.015109494 -0.10431759 0.05225998 -0.020864055
000290 32 9f bc bd 98 70 dc 3c c0 8b 3f 3b 00 cb f2 3a
       -0.092100516 0.026909158 0.0029227585 0.0018523633
0002a0 86 b0 fe 3d 0e f1 81 3d 70 9c a1 3d 80 2e 88 3a
       0.12436013 0.06344806 0.07891166 0.0010389835
0002b0 60 79 ca bc 20 fd 3f 3d dc 8a bf bd 2c eb f1 3d
       -0.02471608 0.04687226 -0.09352657 0.118124336
0002c0 60 89 7e 3c 56 f4 ed bd a4 d3 93 bd 9c e4 76 3d
       0.015535682 -0.11618869 -0.072181016 0.060276613
0002d0 c0 51 ec 3c 88 e2 7c 3d 88 73 fc bd 00 9e 21 ba
       0.028847575 0.061739475 -0.12326723 -0.00061652064
0002e0 fe 87 98 3d a0 6b 8d 3d a0 71 de 3b c8 1b fd bd
       0.074478135 0.069052935 0.0067884475 -0.123588145
0002f0 f0 b9 df 3d ec a8 44 3d 34 00 48 3d 42 4b 9a 3d
       0.10924137 0.04801266 0.04882832 0.075338855
000300 f4 4c 97 3d 60 56 67 bc 9a 90 a9 3d 72 f7 ad 3d
       0.073877245 -0.0141197145 0.08279534 0.08494462
000310 e8 a3 fd 3c 6c 43 c5 bd f4 db b2 3d a4 d6 7a bd
       0.030961946 -0.09632 0.08733359 -0.061239854
000320 aa 51 da 3d 4a 73 9f bd 30 21 0d bc 24 f7 45 bd
       0.106601074 -0.077856615 -0.00861387 -0.048331395
000330 08 2c 8c bd ac de 28 bd be fd a4 3d 98 27 29 3d
       -0.06844336 -0.04122798 0.0805621 0.041297525
000340 e0 e2 3c bc 4a 9b cd bd 06 d2 8d bd b4 63 91 3d
       -0.011528701 -0.10039385 -0.069248244 0.07099095
000350 a4 2b 6f bd 72 66 c5 bd e6 68 8c bd b0 33 2b bd
       -0.05839123 -0.096386805 -0.06855945 -0.04179734
000360 88 88 63 bd 46 7a 87 3d 00 1b c4 ba 46 a3 f1 3d
       -0.05555013 0.06615119 -0.001496166 0.1179872
000370 76 aa eb bd b6 89 80 bd 58 16 2a 3d 42 f5 9c 3d
       -0.11507122 -0.06276266 0.041525215 0.07663967
000380 b8 3f 52 bd 00 ce 4c 3d c2 05 8d bd 28 0c 9b bd
       -0.0513303 0.050001144 -0.06885864 -0.07570678
000390 3c fe 8b 3d 60 6a f9 bb fc 56 bb bd 60 6d 9e bb
       0.06835601 -0.007611558 -0.0914745 -0.004834816
0003a0 24 4e e1 3d 80 ca e9 3c e8 ec cc bc 08 80 b9 bc
       0.11001232 0.028538942 -0.02501531 -0.022644058
0003b0 e8 91 98 bd 90 9e 91 3d 00 5f 07 3b 4c 40 84 bd
       -0.074497044 0.071103215 0.002065599 -0.06457576
0003c0 80 57 ed 3b 8c 41 1e 3d 20 71 ad 3b 10 7e 27 bc
       0.007243097 0.03863673 0.0052930266 -0.010222927
0003d0 28 a6 f0 bd c0 f3 76 bb 04 cb 23 bd 80 ca d1 ba
       -0.11750442 -0.0037681907 -0.039988533 -0.0016005784
0003e0 a2 41 9d bd 00 2e 41 3d a6 80 9e bd 10 72 25 bd
       -0.07678534 0.04716301 -0.077393815 -0.04039198
0003f0 28 63 6b bd 58 e0 80 bd 00 6e e9 3a 68 d3 63 bd
       -0.05746761 -0.0629279 0.0017809272 -0.055621535

fc2_adv.bias f4 [64]
000000 ca 3e fb bd 2c 92 d8 bd f2 05 da bd ee b9 cb 3d
       -0.122678354 -0.10574755 -0.10645665 0.09947573
000010 2a d4 86 bd d6 2d ad 3d d8 91 4a 3d 76 cd fb 3d
       -0.06583436 0.08456008 0.049455494 0.12295048
000020 60 72 7c bd f8 9e bc 3c 0e ea d2 bd 14 ae cf bd
       -0.061632514 0.023025021 -0.10298549 -0.10140625
000030 40 a6 ef bd c2 66 96 3d 5c 44 0e bd a0 2d 22 3c
       -0.117016315 0.07343818 -0.03473316 0.009898573
000040 60 3d cd 3d 3c cd 87 3d 60 c1 1f 3d 32 3d 8b bd
       0.10021472 0.06630942 0.039002776 -0.067987815
000050 58 2c 97 3d 74 85 f1 3d 96 5c ec bd 78 a5 dc bc
       0.07381505 0.11793032 -0.11541097 -0.02693437
000060 5e a2 c3 bd 50 37 00 bd 08 c5 dc 3c 90 09 f1 bd
       -0.095524535 -0.03130275 0.02694942 -0.11769402
000070 f6 4a b2 bd b8 66 42 3d 0c b2 ce 3d 64 bc 4b bd
       -0.08705704 0.04746124 0.100925535 -0.04974021
000080 b8 0f 8b 3d d8 ee c8 bd fc 21 4a bd a2 25 c0 3d
       0.067901075 -0.09811181 -0.049348816 0.09382178
000090 c8 ad 83 bc 90 48 57 3d d6 e0 99 bd a0 c5 26 3d
       -0.016074076 0.052559435 -0.07513587 0.040715814
0000a0 b8 8e e2 bc c0 d5 31 bb 50 fe 3c 3d f8 5c 02 3d
       -0.027655944 -0.0027135462 0.04614097 0.031826943
0000b0 94 d5 b0 3d 20 3f f1 bb 24 41 1d bd 7a 96 be 3d
       0.08634487 -0.0073622614 -0.0383922 0.09306045
0000c0 00 dc df ba 1e 69 d7 bd 56 e8 aa bd 6c fb 9d 3d
       -0.0017079115 -0.105180964 -0.08345096 0.077139705
0000d0 dc 96 75 3d a8 c5 71 bd 1e 5a b7 3d 64 93 78 3d
       0.059958324 -0.05902639 0.08952735 0.060687438
0000e0 a8 56 60 3d 20 c4 d6 3b 8c 3b 73 3d d0 3a e9 bc
       0.05477014 0.0065541416 0.05938296 -0.028470427
0000f0 16 89 db bd 88 6b 04 bd 60 db ce 3c ae d5 80 bd
       -0.107195064 -0.032329112 0.02525109 -0.06290756

fc3_adv.weight f4 [4, 64]
000000 34 25 4e 3d ac 73 ea 3d 8c ca 4c 3d 92 ac a6 3d
       0.05032845 0.11447844 0.04999785 0.08138384
000010 40 69 44 bc a0 04 ae bb 14 24 12 bd 3c 57 df 3d
       -0.011987984 -0.00531061 -0.035678938 0.109053105
000020 e8 a5 bf bd f8 e0 5e 3d 38 ba 4d 3d c4 c3 eb 3d
       -0.09357816 0.054413766 0.05022642 0.11511949
000030 10 60 77 bc 78 20 5e bd 98 75 f8 3d 2e e5 b4 bd
       -0.015098587 -0.054230183 0.12131804 -0.08832775
000040 00 38 b9 3a 3e 0d 9d bd 96 6a b7 3d f0 79 aa 3d
       0.0014131069 -0.07668541 0.089558765 0.08324039
000050 8a 42 88 bd 50 82 11 bc 00 e5 9e ba 54 d2 ee bd
       -0.06653316 -0.008881167 -0.0012122691 -0.11661211
000060 c8 76 eb 3d d4 22 55 3d 00 c0 82 b7 6e 5e d8 3d
       0.11497265 0.052035168 -1.5586615e-05 0.10564886
000070 84 b3 80 3d 68 af 65 3d 08 d1 52 3d 00 df 31 bd
       0.0628424 0.056075484 0.05146888 -0.04342556
000080 62 2d ce bd e8 e8 3d 3d c0 86 1d bc e2 b3 81 3d
       -0.1006725 0.046364695 -0.009614646 0.06333138
000090 aa b9 b8 bd 90 ed 40 3c 1e 3f bf 3d c0 b4 b0 3c
       -0.090197876 0.011775389 0.093382105 0.021570563
0000a0 88 22 b4 bd 0c 68 18 3d 10 5f fd 3d 4c 0a 1a bd
       -0.08795649 0.0372086 0.12371647 -0.037607476
0000b0 60 37 aa bc 86 36 96 3d 5e 68 a5 3d b8 18 3b 3d
       -0.020778358 0.07334618 0.08076547 0.04567787
0000c0 d0 f7 ca 3c 7c 7e be 3d 26 9f ef 3d 40 02 e4 bd
       0.02477637 0.09301469 0.11700277 -0.11133242
0000d0 e0 d0 a3 3d 5a 7d c1 3d 76 7b 8e 3d f0 c6 4a 3d
       0.07998824 0.09447737 0.06957142 0.049506128
0000e0 d0 59 2f 3d 74 1d c2 3d 30 30 81 3c a0 20 e7 3d
       0.04281026 0.09478274 0.015770048 0.112855196
0000f0 70 ac 9b bc 7e d0 88 3d e4 26 ca 3d e0 b8 c4 3b
       -0.019003123 0.06680392 0.09870699 0.006003484
000100 ae cc c1 3d 28 cb a2 3d f4 ad 3e 3d f8 f0 3e bd
       0.09462868 0.07948905 0.046552613 -0.046616524
000110 8e c5 bf bd 7c bd 4a 3d 34 fc 96 3d a4 98 e5 bd
       -0.093638524 0.049497113 0.07372323 -0.112107545
000120 80 4e 0f bb 00 40 fd 37 98 b9 da bc 60 2e 96 3d
       -0.0021866858 3.0189753e-05 -0.026699826 0.07333064
000130 76 95 db 3d 18 fd 32 bd c8 a8 4f 3d bc 52 be 3d
       0.10721867 -0.0436984 0.05069807 0.09293124
000140 a0 79 21 bc d6 a9 89 3d 70 94 f8 3d 30 20 15 bc
       -0.009855658 0.06721847 0.12137687 -0.009101912
000150 36 bd ee bd a6 3b e2 bd 60 f6 d2 3d 06 db a5 bd
       -0.11657183 -0.11046533 0.103008986 -0.08098416
000160 c2 d9 eb 3d b8 2c c5 3c 78 bf c6 bd 90 86 f9 3d
       0.115161434 0.024069175 -0.097044885 0.12183869
000170 20 96 c3 3d 28 5e 13 bd f8 07 bc bc 9a d6 8e bd
       0.095501184 -0.035978466 -0.022953019 -0.06974526
000180 a6 62 86 bd 40 99 03 3d 40 db e9 bb 20 cc ab bd
       -0.065617844 0.032128572 -0.0071367323 -0.08388543
000190 30 f0 dd bc 10 94 46 3d cc e9 00 3d d0 18 db 3c
       -0.02709207 0.048481047 0.031472966 0.02674523
0001a0 28 6a a4 bd d4 fe 69 bd 14 ec 0d 3d e8 ea a8 3d
       -0.0802806 -0.05712779 0.03464897 0.0824793
0001b0 30 e5 b7 3c 2a 4c c3 bd 78 3a 38 3d d0 7f a0 bd
       0.022448152 -0.095360115 0.044977635 -0.07836878
0001c0 6a d0 ee bd 5a b8 b5 3d 22 01 97 3d d8 90 aa bc
       -0.116608456 0.08873053 0.07373263 -0.02082102
0001d0 8a 85 9f 3d 24 25 41 bd f8 04 22 3d 4c e7 f9 bd
       0.077891424 -0.04715456 0.03955552 -0.122023195
0001e0 9c f9 74 bd 98 87 c9 bc a0 08 d5 3c f4 a1 6e 3d
       -0.05980836 -0.024600789 0.02600509 0.05825992
0001f0 20 10 a5 3c c4 1c 7f bd f2 d7 c8 3d 46 bf 95 3d
       0.02014929 -0.062283292 0.09806813 0.07311873
000200 8c 15 90 bd a0 97 a5 3b 50 10 ed 3d f8 81 2d bd
       -0.0703536 0.0050534755 0.11575377 -0.042360276
000210 72 50 fd bd 94 02 bc 3d 6c 15 54 3d 1a 45 86 3d
       -0.12368859 0.09180179 0.051778242 0.06556149
000220 60 ac 89 3c e8 c4 9f bc a8 8d e6 bc 00 9b 6a 3d
       0.016805828 -0.019503072 -0.028143719 0.057276726
000230 70 59 04 bd 88 b5 6c bd 40 6f a2 bb f4 5b 18 3d
       -0.032311857 -0.05779031 -0.0049571097 0.03719707
000240 42 18 fb bd 80 ef c4 3b c0 f1 6a 3d 2c 6c 98 bd
       -0.12260486 0.006009996 0.057359457 -0.07442507
000250 fe 42 a9 3d b0 cf e4 3c e8 93 8d 3d 9c 97 51 3d
       0.08264731 0.027931064 0.069129765 0.051169977
000260 40 e0 08 3b 44 ba 74 3d ae 0b d3 bd c4 dc b8 3d
       0.0020885617 0.05974795 -0.10304962 0.09026483
000270 f8 6b 98 bc 00 d3 8d 3a c0 8a 57 bd e8 38 b0 bd
       -0.018606171 0.0010820329 -0.052622557 -0.08604604
000280 80 c7 99 bd d0 ee 79 3d a8 3c 07 bd 40 7f e1 3d
       -0.07508755 0.061018765 -0.03301683 0.11010599
000290 80 81 d0 bc ca 79 fd bd 16 ef 89 bd c0 0b d1 bb
       -0.025452375 -0.12376745 -0.06735055 -0.0063795745
0002a0 d0 fe 86 bd 3c 6e 85 bd 08 0a 6d 3d 78 8c 5c 3d
       -0.065915704 -0.06515166 0.057870895 0.0538449
0002b0 00 fe eb 39 c4 bd c4 bd 76 d9 d0 bd 20 d8 c3 bb
       0.00045011938 -0.096065074 -0.101977274 -0.005976692
0002c0 0a 0c f1 bd 80 3b f6 3c 00 50 ca b9 30 5c ae 3c
       -0.117698744 0.030057669 -0.00038588047 0.021284193
0002d0 30 e3 29 bc 22 03 9e 3d b6 d3 8a bd 5c 1c dd bd
       -0.010369107 0.07715441 -0.06778662 -0.10796425
0002e0 b4 8b 19 bd 08 45 55 3d 90 4a d6 bd b8 cc 92 3c
       -0.037486747 0.052067786 -0.104634404 0.017919883
0002f0 22 e4 c5 3d c0 da a0 3d f0 3c 67 3d 7c 77 2e bd
       0.096626535 0.07854223 0.0564546 -0.042594418
000300 58 bf ec 3c 40 93 79 bb 24 86 ba 3d 54 9b 86 3d
       0.028899834 -0.0038082153 0.091076165 0.06572595
000310 84 59 0c 3d 40 be e7 3c a4 4c 28 3d 60 fe fb 3c
       0.034265056 0.02828896 0.041088715 0.030760944
000320 98 30 9a bc fe 9e ad bd 74 4f 1f 3d 90 bb 7e 3c
       -0.018822 -0.08477591 0.03889413 0.015547648
000330 dc 48 ae 3d fa f7 93 3d 68 37 d0 bd 00 1e 82 bc
       0.085099906 0.07225032 -0.10166818 -0.015883446
000340 88 4d d1 bd 42 7f d7 3d a0 75 5b 3c aa 13 b0 bd
       -0.10219866 0.105223194 0.013394743 -0.085975006
000350 4e 31 df 3d 70 1a ae 3d 10 d9 df bc 2e 5b 81 3d
       0.10898076 0.08501136 -0.027325183 0.06316219
000360 00 cc ed ba a0 0e 15 bc 30 df 58 3d e0 3b 2f bc
       -0.0018142462 -0.009097725 0.052947223 -0.010695428
000370 9c 48 50 bd e8 fa 17 3d 10 66 2a bd 20 89 95 3d
       -0.050850496 0.037104517 -0.04160124 0.07301545
000380 c2 62 e4 3d b0 c0 7c bd cc fa 0b 3d d8 9d bb 3c
       0.11151649 -0.0617072 0.034174725 0.022902414
000390 cc f1 7d 3d 80 93 52 3b a0 70 95 3b 7c 7b 01 3d
       0.061998174 0.0032131374 0.004560545 0.031611905
0003a0 a2 df d3 bd 80 1c 98 3c 00 99 fc bd 10 dd 6f bc
       -0.10345389 0.018568277 -0.1233387 -0.014640108
0003b0 f4 2b 94 3d 48 7e 7c bd 50 ff 89 bc a4 eb d1 3d
       0.07234946 -0.06164387 -0.016845375 0.10250023
0003c0 8c 1f 36 3d 00 1c 7c 3a b0 14 3d 3c 68 89 6e bd
       0.04446368 0.00096172094 0.011540577 -0.05823651
0003d0 48 42 94 3c 02 17 cd 3d 3c 26 3a 3d c6 d4 fb 3d
       0.018098012 0.10014154 0.04544662 0.12296443
0003e0 28 2e 8e 3d 30 e5 c1 bc 28 0c 9a bc b0 82 72 3d
       0.06942397 -0.023668855 -0.018804625 0.059206665
0003f0 80 b1 a0 3b bc 93 12 3d 2e b3 ec bd 50 95 d3 3c
       0.004903972 0.03578542 -0.11557613 0.025828034

fc3_adv.bias f4 [4]
000000 78 e2 83 3c 98 51 ed bd d8 1f b0 3c 14 7b 3e 3d
       0.0160992 -0.115878284 0.02149956 0.046504095
