_prioritized_ddqn.Agent object at 0x7f3cf2162c18__checkpoint.pth (torch_old, 28333 bytes, 6 tensors)

fc1.weight f4 [64, 37]
00000000: c64a 76bc 8b88 513d 5d21 1cbe afb1 d5bc
00000010: 7f75 d03c fb85 6bbe 4a3c c23d c2f6 533e
00000020: b4d9 debc edb2 61be 0108 7dbd 1208 cdbd
00000030: 67a1 babd 4060 82be b404 95be 2d38 883d
00000040: 049e 223c c052 3bbd ba25 39bd bdc1 7abd
00000050: 642a 3b3c f002 ea3d ac4e 403c a82c 433d
00000060: 3f79 263e a23e 9cbd ad10 013e c642 2bbd
00000070: 2358 debd d0af 0bbd ba79 a7bd 8b4a 41bd
00000080: 4375 003d 914d fe3b a3e0 28bc 64d6 5bbe
00000090: 6a24 4c3d 2ac1 5c3e 537b ac3d d3c2 083e
000000a0: d8e5 a63d 1958 1dbe 64f0 0d3d 34ee 99bd
000000b0: 771c cd3d 8fc6 8abd ad1a 2e3d 698d a03d
000000c0: b4e6 a53d 2ffe e43d 0bc5 193d 2108 883b
000000d0: 8ec5 fb3e 7f9a 20bf 9e09 23bf bc38 d2be
000000e0: 7908 03c0 9bcd b3bc 89a4 703c 8a9f 16bd
000000f0: f329 b6bc 94c8 8e3d 9804 193d 2d83 f7bc
00000100: bf10 a63c 63c9 873d d2b5 42bd 8485 0c3e
00000110: 8ba9 1b3e 4306 dd3d ab3b 803d 6bb0 8ebd
00000120: 9ab2 9dbc e5b0 18bb d401 b7bd 44d9 e2bd
00000130: c511 4b3e 05af 8fbd c3a2 fcbc d043 9cbf
00000140: 8e01 16bf 8769 bf3e c506 053d 1249 53bf
00000150: cbc3 43bd 0de7 10be 314c 3f3d aef8 b2be
00000160: 64ab 323e 2809 63be 9503 45be 009d 1a3e
00000170: e4b2 143d fa65 6e3e 4030 e5be b5ef 453e
00000180: 8e63 57be c032 b1bd 24b4 f1bc 5583 ddbe
00000190: 2bfe 1e3e 1f5d e63b 7363 e8bd 1d8b 95bd
000001a0: 718f f8bc 3c8f bdbc 8cbb a1be 2fe4 32bf
000001b0: 7e54 c33c 9036 1a3c 0735 293d 8ac7 253e
000001c0: c53c 823d a81f f9bb 11f8 463e f469 7abe
000001d0: 3256 9ebe 6200 e0bd c7fe 363e 21e5 2b3e
000001e0: 88e2 c7bd cf56 713d 60da 34be 5705 b63d
000001f0: fc97 9fbe 8f71 7a3d fa57 e6bd b64d 12be
00000200: 441d 91be 3a6d 6c3e fb65 5f3d 0fdb e03c
00000210: 362d 28bf 48e4 093e 5706 8a3d 4522 04bd
00000220: 941b 493e a6c4 6ebe 40ab 33be 4bb6 c23c
00000230: 49b6 993e 7cad bc3d f88d 48bd a361 483c
00000240: 35a1 66be 9a31 d7be b3c2 443e d75c f4bc
00000250: dd01 79be 8700 0abd b429 37be 82cf 6dbe
00000260: 474c 88be 53f7 bdbd 8130 953e e9ac 8bbb
00000270: 8729 18bf 3cc5 0abf 14ff 97bb 6784 babc
00000280: f1fd 05be a8f5 25be 6136 1abe 50d8 9dbe
00000290: 9745 d2bd dbf0 a03d ce7d 17bd 6213 44be
000002a0: dc9c 83be 6079 5eba 243b 2dbd 8c0b 803e
000002b0: ea70 de3e 8f43 02be 9e2f 103a a960 203e
000002c0: 4705 c5bc 505e 5fbe 9a74 d33d 7fb8 f9bd
000002d0: 247c 5abc cb49 a7be 0c28 1b3f d610 013d
000002e0: 97a7 e13c c28b c33d dd67 afbc fb72 983d
000002f0: e587 fc3b 1b48 8b3d f2ee dd3e 6bc8 8abd
00000300: f905 febe e452 1dbf a7e6 06c0 665c cabc
00000310: d09e ee3b a684 033d c724 d83c 71ac b63c
00000320: cc63 23bc 5c85 3b3d b953 2c3e 2c4e bdbc
00000330: 04b0 bdbd 9c78 9a3d cdbb 4c3e a614 403e
00000340: f31e 083e 3298 4c3c ae08 53bd 72ab 513d
00000350: ffc9 3a3d 4d48 a13e 3e1c 3f3e 33ef 0dbc
00000360: 32da b13d 945c e73d c5cb 9e3c 4870 cfbd
00000370: a64c 1b3c 0a96 00bb 7aaa 20be 42c0 073d
00000380: 0846 88bd 9ada 04be a7d3 0abe db7b 56bd
00000390: f967 99be 6d94 4fbe c6fc a93e a43a 673f
000003a0: 9ac7 273c 53d1 d73c effc 66bd 2d8b ab3c
000003b0: 40e6 883e 0cbe c2bd f531 03be dc2f 3bbd
000003c0: 2876 85bd 1b81 36bb 2173 68be b71c 19be
000003d0: 3723 e33c 7dd3 1d3e 6c38 da3e 7655 7dbe
000003e0: d78c 49be f98a 9cbc e8a0 123e faac 1c3c
000003f0: b6e6 5fbe 84a2 34be b51e 7d3d 56a6 ee3d
-0.015032476 0.05115561 -0.15247102 -0.026085703 0.025446652 -0.23000328 0.094841555 0.206996
-0.027203418 -0.22040911 -0.06177521 -0.10011305 -0.09112816 -0.25464058 -0.2910515 0.0665134
0.009925369 -0.045733213 -0.045201994 -0.06121992 0.011423681 0.114263415 0.011737507 0.04765001
0.16257189 -0.07629134 0.12604018 -0.041811727 -0.108566545 -0.034103215 -0.081775144 -0.04719023
0.03136183 0.0077607115 -0.010307464 -0.21468502 0.049839415 0.21558061 0.0842196 0.1335557
0.08149308 -0.15365638 0.034653082 -0.07516137 0.10015195 -0.06776153 0.04250591 0.07839472
0.08100644 0.11181294 0.03754143 0.0041513597 0.4917416 -0.6273574 -0.6368655 -0.4105891
-2.0473921 -0.021948626 0.014687666 -0.036773242 -0.0222368 0.06971851 0.037357897 -0.030213917
0.020271657 0.06630208 -0.04753668 0.13722807 0.15201394 0.1079221 0.06261381 -0.06967243
-0.019250203 -0.0023298797 -0.089358956 -0.110765964 0.19830997 -0.07015804 -0.03083933 -1.2208195
-0.5859612 0.37385198 0.03247716 -0.8253337 -0.047794145 -0.14150639 0.04670352 -0.34955353
0.17448193 -0.22171462 -0.19239648 0.15098953 0.036303416 0.23281088 -0.44763374 0.19329722
-0.21034071 -0.08652258 -0.029504843 -0.4326426 0.15526645 0.007030144 -0.113470934 -0.073019244
-0.030341836 -0.023139589 -0.315884 -0.6987943 0.023844 0.009412423 0.041310336 0.161894
0.06359247 -0.0076026507 0.19430567 -0.2445448 -0.30925137 -0.10937573 0.17870627 0.16786624
-0.09760004 0.058920678 -0.17661428 0.08887737 -0.31170642 0.061143454 -0.11247249 -0.14287457
-0.2834264 0.23088542 0.054540616 0.027448205 -0.65693986 0.13465989 0.067394905 -0.032259244
0.19639426 -0.23317203 -0.17545795 0.023768565 0.30021885 0.09212777 -0.048963517 0.01223031
-0.22522433 -0.4203003 0.19214897 -0.029829426 -0.24317117 -0.03369191 -0.17887002 -0.23223689
-0.26620695 -0.09275689 0.29138568 -0.004262556 -0.59438366 -0.54207206 -0.004638562 -0.022768212
-0.13085152 -0.16206992 -0.15059806 -0.30829096 -0.102671795 0.078584395 -0.03698521 -0.19148019
-0.25705612 -0.0008486714 -0.04229273 0.2500881 0.43445522 -0.12721084 0.00055002596 0.15661873
-0.024050368 -0.21813321 0.10324974 -0.12193393 -0.0133352615 -0.32673487 0.6060798 0.031510197
0.027545733 0.09548141 -0.02141183 0.07443806 0.0077066296 0.068008624 0.43346363 -0.06776508
-0.49613932 -0.61454606 -2.107828 -0.024702262 0.0072821155 0.032108925 0.026384724 0.022299023
-0.009972524 0.04578148 0.16828813 -0.023108564 -0.09262088 0.07542536 0.19993515 0.18757877
0.13293056 0.012487458 -0.05152195 0.051188894 0.045602795 0.31500474 0.18663117 -0.008662987
0.086841956 0.11296955 0.019384274 -0.10128838 0.009478724 -0.001962068 -0.15690032 0.033142336
-0.066539824 -0.12974015 -0.13557301 -0.05236421 -0.29962137 -0.20271464 0.33200663 0.90323853
0.01024046 0.02634493 -0.05639356 0.020940388 0.26738167 -0.09508905 -0.12812026 -0.04569994
-0.06516677 -0.002784795 -0.22700168 -0.1495236 0.027726753 0.15412708 0.4262117 -0.24739632
-0.19682632 -0.019109236 0.14319193 0.009562725 -0.21865353 -0.1764012 0.061796863 0.1165282

fc1.bias f4 [64]
00000000: 7a93 8f3d f6fb 763d e6be 46be 9a21 05be
00000010: 1036 083e 7825 6c3d b7be 31be 8ae3 d63d
00000020: 046d 5c3c 4784 34be 3d64 f93d 788e 7f3e
00000030: 7820 e43d 6882 bc3d db48 9dbd efe3 69bd
00000040: e4b1 513d 019b 643d 7bd4 833c 9a53 47be
00000050: e54d f6bc dd2c 953d e393 6e3c 0839 96bd
00000060: c662 e4bd d7ec 213e 320e 49bc cd5e 02be
00000070: dde6 ac3d c60b f93c e4c8 3bbd ecfa 27be
00000080: b86c 4e3d 86ce 653c b9b6 a1bd 858a b33d
00000090: ffc3 27bd 6601 6b3e de9c 933b 6650 60be
000000a0: eb75 fdbd 2797 fdbd 1a08 2fbd 7791 9d3e
000000b0: 409d 143d 39e9 aebd cb56 923c 72a1 a2bd
000000c0: 2425 13be 12f9 8e3d 4bd8 ccbd 614d 403d
000000d0: 28b1 a4bc a053 333d 96d7 9dbe 3c0f e33d
000000e0: 1de7 b63d 274c 9ebd f592 68bc c012 16be
000000f0: ed0f b2bd a800 953d 72fa 743e a38f ec3d
0.07010551 0.060298882 -0.1940876 -0.13001099 0.13301873 0.05765292 -0.17357908 0.104926184
0.013453726 -0.17628585 0.12177322 0.24956691 0.111390054 0.092045605 -0.07679912 -0.05710214
0.05119504 0.055811886 0.01609253 -0.19465485 -0.03006644 0.072839476 0.014561626 -0.073350966
-0.11151652 0.15813003 -0.012271451 -0.12731476 0.08442471 0.030401122 -0.04584588 -0.16404313
0.05039665 0.01402629 -0.0789618 0.08766655 -0.0409584 0.22949752 0.004504784 -0.2190567
-0.12376007 -0.12382346 -0.042732336 0.30775043 0.036282778 -0.085405774 0.017863652 -0.079409495
-0.14369637 0.069811 -0.10002192 0.046948794 -0.020104006 0.043780923 -0.30828542 0.1108689
0.089308 -0.07729369 -0.014195194 -0.1465559 -0.08694444 0.07275516 0.23923662 0.11550834

fc2.weight f4 [64, 64]
00000000: a50e ebbd 8bb7 883b d9ad 0d3e 3bcf 62bb
00000010: e7ab ab3a 8016 54bc a2e5 4ebe 817f e3be
00000020: 4257 083e 04b3 703b 427e cfbc c9a8 233d
00000030: fa69 13bc 379e e53d b011 d13d 226e 22bd
00000040: 8191 73be 43db bfbe 56c6 8fbe eeea 353c
00000050: 2b5b a7be ada2 b5be 5ea3 913e 41de b4be
00000060: 0549 68bd 2a67 67be e065 813c d6ba c0be
00000070: 6748 ef3d 9ce0 92be 6bab 143e 3df4 34bf
00000080: 45cc bfbe d160 51bf f1fe 5ebf 1460 6c3e
00000090: f726 e3bd a1b8 813e 4a57 3c3e 216a 63bf
000000a0: 16d7 183e b301 fbbe 1841 8cbb 381c 673d
000000b0: 250c a4bd 1374 e8bc 8597 4abe 85bd 9a3e
000000c0: 9663 43bf d592 0fbf 0aab abbd 1893 2cbe
000000d0: c795 dabe 4ae7 86be 732a 873d 2d3a 2dbe
000000e0: 217d 8dbe 16ee b2be bd15 703e f2f3 253e
000000f0: 6f7f 35be 813f 543e 479b b5be 6af8 403d
00000100: 2715 91bd cfe7 31bc c2eb d3be 6b05 3dbe
00000110: cd3e a9bd 9606 753e 24dd 19bd eeba 1b3e
00000120: 4868 77ba 2462 2e3c 2b4b 03be 7da0 c53e
00000130: 8b3d 13bd 3bcf 5f3e 61b6 eabc bc12 a53c
00000140: 829f 963d caf8 36bd 9d4d 7fbc e5e9 c3be
00000150: 8309 453d 751f 893b 9d0c 423d c019 ddbd
00000160: d12a d93d 99d4 113d ed81 8fbe f908 8bbe
00000170: 4595 583d f1cd b0bd 7cf7 40bd 279f e5bc
00000180: 0787 8fbe 5d7c b23d f6ef fcbd def6 353e
00000190: ca22 e33d 830b cd3e 3ab5 f33c 6f2b d7bd
000001a0: b6fa 7dbd de0c 063d 4f57 02be 4604 6b3e
000001b0: e382 4abd 1af2 40be 715e bebd 9faf 533d
000001c0: 4159 b7bd 46a3 f7be 3b5c 053e ce96 993d
000001d0: f5fb 4ebe 4e92 72be 9e70 f8bc e676 0a3d
000001e0: 9596 5dbe 5312 03be d066 6f3e b723 093e
000001f0: 3cf7 1bbd bbb5 0a3e bd4a 45bb 504b c3bd
00000200: 5f67 37bd a535 66be 5111 9f3d c493 2a3e
00000210: a95b 223d 1281 1a3d 9594 c4be 9c5d 86bd
00000220: be62 b13c 210b 99be 23a0 ba3d 528b d73c
00000230: 91ac b73e 4dc6 81bc 6ae6 1ebe 9e7f 08be
00000240: 5df0 b7bd e328 54bc afbd 65bd 8cce 07bf
00000250: 409a 4f3e 9500 003f 6006 35be 6eb6 32bd
00000260: 1717 083e 7c19 723e 9b18 863d c24a 2bbe
00000270: 035f 02be 170a 953e 3757 8e3c 1ec8 15bd
00000280: 41db 1cbe a60c 9c3d dbfa a6bd fe4f ea3d
00000290: 3421 8dbd 4532 eb3d cc34 2a3e 4c79 f4bd
000002a0: f7e5 c23d 64ad 283a 3ab8 d23d a942 2dbc
000002b0: e199 c63d 4889 61bd 7137 09be d65c 87bd
000002c0: 78ce b33d d25d 46be e0b3 323c 049a 6cbc
000002d0: 3d51 bbbd fe43 233e f84e a3be b637 4bbe
000002e0: 04e5 f3bd d793 33be ed2c 013f 2463 8cbe
000002f0: a543 27be 88ef e03d 1edc 463c 971b b03d
00000300: 41e9 f0bd e714 8fbd 4b4e ea3e 0956 4ebe
00000310: 2faf 60bd d713 843e 583a f9be 7399 12be
00000320: e251 123d 0df0 7e3d 619a 033d b212 993e
00000330: 7939 323e af51 18bf 1a52 6ebe 04c0 dcbd
00000340: ce4f cfbc a064 0a3d 1e64 a63d afef 34be
00000350: ed93 b6be 0e9a d8bc 43b7 2ebe d4a0 05bf
00000360: 621f 593e edc9 20be fba8 383b d4b0 d33d
00000370: 3d25 57be 86c7 fcbe ea81 163e 4802 3bbf
00000380: 878f 113c 6dbb b43e 0339 93bd dfb3 e33d
00000390: 94d2 4c3e fe6f 9a3d c111 d53d cc67 edbd
000003a0: 6e47 babd 442c a93c bfa3 85be 4b53 003e
000003b0: fad7 a33c e932 3bbe d4bf 813d 9fe5 503e
000003c0: 8428 bcbd 21ec 273e 82a3 88bd 4e93 acbd
000003d0: 1826 c0be 6504 68be 0017 0fbe 206f 90bd
000003e0: 345c 5cbe 72aa f0be d3f7 6dbf dd10 61be
000003f0: 13ec 26be 0a38 fcbd cf4f 82be 2bbd 1dbd
-0.114774026 0.0041722707 0.13835849 -0.0034608382 0.0013097496 -0.012944818 -0.20204785 -0.44433215
0.13314536 0.0036727795 -0.02532876 0.039955888 -0.008997435 0.11211818 0.10208452 -0.039655812
-0.23785974 -0.3747197 -0.28081006 0.011103375 -0.32686743 -0.35475674 0.28444952 -0.35325816
-0.05671026 -0.22597948 0.015795648 -0.37642545 0.116837315 -0.28686988 0.14518516 -0.7068518
-0.37460533 -0.81788355 -0.8710776 0.23083526 -0.11091416 0.25336173 0.18392673 -0.88833815
0.14925799 -0.49024734 -0.0042802207 0.056423396 -0.08010129 -0.028375661 -0.19784363 0.30222717
-0.7632383 -0.5608342 -0.083822325 -0.16852987 -0.42692396 -0.26348335 0.065998934 -0.16916724
-0.27634528 -0.3494727 0.23445792 0.16206339 -0.17724393 0.2072735 -0.3547003 0.047111906
-0.070841126 -0.01085849 -0.41390806 -0.18459098 -0.082639314 0.23928294 -0.03756441 0.15208027
-0.00094378414 0.010643516 -0.12821643 0.38599005 -0.035947364 0.21856396 -0.028651418 0.020150535
0.073546425 -0.044670857 -0.015582469 -0.38264385 0.048104774 0.004184658 0.04737531 -0.10795927
0.1060387 0.03560314 -0.28028813 -0.27155283 0.05287673 -0.0863303 -0.04711102 -0.028029991
-0.28032705 0.08715127 -0.123504564 0.17769954 0.1109062 0.40047845 0.029749501 -0.10506331
-0.062006675 0.032727115 -0.12728618 0.22950849 -0.04944123 -0.18842354 -0.09295357 0.051681157
-0.08952571 -0.48366755 0.13023464 0.07499467 -0.20213301 -0.23688623 -0.030327138 0.033804797
-0.21639474 -0.12799959 0.23379064 0.1339253 -0.038077578 0.13545887 -0.0030104362 -0.09535849
-0.044776317 -0.22481401 0.07766975 0.1665793 0.039638195 0.037720747 -0.3839461 -0.06560823
0.02165353 -0.29891303 0.09112575 0.02631155 0.35873845 -0.015841627 -0.15517583 -0.13329932
-0.089813925 -0.012949201 -0.0560891 -0.5304954 0.20273685 0.5000089 -0.17678213 -0.04363101
0.13290058 0.23642534 0.06547662 -0.16727737 -0.12731557 0.2910926 0.017375572 -0.0365678
-0.15318014 0.076196 -0.08153316 0.114410385 -0.068910986 0.114841975 0.16621703 -0.11937198
0.095165186 0.00064345286 0.10289045 -0.010574975 0.09697319 -0.055062562 -0.13400055 -0.06609504
0.08779615 -0.19371727 0.010907143 -0.014441017 -0.09146354 0.15943906 -0.31896186 -0.19845471
-0.11908916 -0.17536865 0.50459176 -0.27419388 -0.16334398 0.10983187 0.012137441 0.08599012
-0.1176324 -0.06986409 0.45762858 -0.20150007 -0.054854568 0.25796387 -0.48677325 -0.14316349
0.03572262 0.06224065 0.03212965 0.29897076 0.17404737 -0.5949964 -0.23273507 -0.107788116
-0.025306609 0.03378737 0.081245646 -0.17669557 -0.35659733 -0.026440646 -0.17062096 -0.5219853
0.21203378 -0.15702029 0.0028176892 0.10336462 -0.21010299 -0.49370974 0.14697996 -0.73050356
0.008884317 0.35299245 -0.071886085 0.11118292 0.20002204 0.07540892 0.10403777 -0.11592063
-0.090956554 0.02065099 -0.2610149 0.12531774 0.020000447 -0.1828114 0.063354164 0.20400093
-0.09187415 0.1639867 -0.06671812 -0.08426534 -0.37529063 -0.22657926 -0.13973618 -0.070524454
-0.21519548 -0.4700504 -0.92956275 -0.21979089 -0.16300993 -0.12315376 -0.25451514 -0.038510483

fc2.bias f4 [64]
00000000: 7ecb f6bd b49e 9e3e 604e ad3e ac28 43be
00000010: 4a26 8d3e af6d 62be 6f45 463d c347 793e
00000020: 36d9 8f3e dbf3 683f 2696 95bd 083b 503e
00000030: 1d6d c63e f913 dcbd 3f13 d0bd cbff 113e
00000040: 714f ae3d 5d17 ef3c 66e2 5bbe 6a0f 663e
00000050: 414f 483d 9d2d 563f ab5c 31be 6158 17be
00000060: d36f 2cbd fb01 4f3a 1dd0 013f 466b 683d
00000070: 45ec e1bd 31ea 8a3d 27e1 e93d 2a4c 3a3c
00000080: 4eb3 0dbd cdb0 453e ac42 12be 65a2 a73c
00000090: 9bae 76bd 3896 b9be 164d 38bc f6bc 8bbe
000000a0: e902 15be 64e5 4b3f f655 583f 4788 92bd
000000b0: 56e0 403e 347b abbe 2875 2dbe 0aa4 7fbc
000000c0: b2c4 9ebd 2c1a 66be 1e99 a4be 44ce 283f
000000d0: bae1 dcbd b296 ed3c 3563 f13e 705c ffbd
000000e0: c0c0 4dbe 9251 9ebb 5e44 9bbd 032b 51bc
000000f0: 4123 293d 5023 793e eb7a 82bb 1c70 96be
-0.12050532 0.30980456 0.33848858 -0.19058484 0.27568275 -0.22112153 0.04840606 0.24343781
0.28095406 0.90997094 -0.07304029 0.20335019 0.38755122 -0.10745997 -0.10159921 0.14257734
0.08511246 0.029185945 -0.21473083 0.22466817 0.048903707 0.8366335 -0.17320506 -0.14779808
-0.04209883 0.00078967185 0.5070818 0.05674293 -0.11031393 0.0678295 0.114198975 0.011370698
-0.034594826 0.19305725 -0.14283246 0.020463178 -0.06022511 -0.3624742 -0.0112488475 -0.27292603
-0.14551891 0.796469 0.84506166 -0.07154899 0.18835577 -0.33492434 -0.16939223 -0.015603075
-0.077523604 -0.22470921 -0.3214807 0.65939736 -0.107852414 0.029002521 0.47146 -0.12468803
-0.2009306 -0.0048315013 -0.075813994 -0.012766602 0.041293386 0.24329877 -0.003981938 -0.29382408

fc3.weight f4 [4, 64]
00000000: a962 4bbe 06b0 623e 6265 c73d 5313 0fbe
00000010: 7622 743e 8090 34bd d233 c33e ed81 763d
00000020: ccb5 653e 6f54 8c3e 2bda 46bf de30 033f
00000030: 2c65 bc3d 2738 a93d b8c5 bebc cf13 903d
00000040: c8a4 c83d 924b 2fbe 6f65 d4be 8479 253e
00000050: 09c6 a23d 90b2 733e 26f4 81bd 94c8 2dbe
00000060: 8525 37bd 52e0 66be 5548 013e 8444 d6bc
00000070: d6c8 1dbe 237b 14be 852b 71bf a21b 3f3d
00000080: 8f87 e53c bf80 4d3e cecc 4bbe b31c 2a3e
00000090: cf5e 983d 216a 8ebe fb2f 2a3e 73f9 85be
000000a0: e168 c63d 310a 703e 6000 8c3e 1dd9 aa3e
000000b0: 0638 dd3e 7098 70be 308d 093d 9504 bf3e
000000c0: 93e4 31be 215f 963e 44ea 57be 25e1 f53e
000000d0: 2806 a03e 2d31 ab3e 75f8 473e 52dd 13bf
000000e0: 7ea8 41be 1e54 053f cbb3 ba3d f83e 953e
000000f0: 6012 ccbe e7d7 343e 3088 32be 8626 57be
00000100: 8b51 efbd a0e2 8b3e 3c56 593e bcb4 ba3c
00000110: ca05 5f3e c299 e6bd 0204 9c3e 0b2d a5bd
00000120: 0873 0f3e e110 973e d83c 803e ac7e 163f
00000130: a6bb 863e 54f6 073e c7eb 1d3c 0238 abbe
00000140: 5ee9 023e 4844 a83e a384 4bbe d8c7 7c3e
00000150: 6ac3 493e 19e7 ba3e 79b1 cc3d 8932 df3d
00000160: 4242 d9bd 8af8 11be 8b49 d83d ec5f 773d
00000170: e478 37be f21f 113e 4984 33bd 26ca c13d
00000180: 2cfd 423e fa9a ae3e f5a2 25be b208 e33d
00000190: 1434 5b3d 5452 a1be 9ab9 b33e 2e73 4fbe
000001a0: bf9d a5bb 25fe 7e3e a41e 503e 8bdc 213c
000001b0: a9ec d03e 77c9 42be 8e42 153c 883b 7e3e
000001c0: a070 5abc 1c90 fa3b 2413 98be 03a4 b33e
000001d0: a405 b43d 7824 a83e 34e3 063e 480b 51bd
000001e0: d2a9 66be 3a71 8ebd ca9d fa3d 3b07 b33e
000001f0: d497 c43c b4c1 723e 9d84 07bd e9dd 1cbe
00000200: 9ff5 693d 7b73 173e a45c 8d3e 067c 753e
00000210: 53e5 bc3e bbe8 aebe 16df e13e 5a8b a93c
00000220: bc41 c33c 7d6b 823e c341 79be 90b6 3c3d
00000230: 06a4 9e3e 4301 51be 665c 98bd 8a1d 6a3e
00000240: bc3f 3b3d 2379 53bf fd21 0fbf 5c5e 3d3d
00000250: 4f2d 783d 9e0e c13e 5248 a23d 73c2 b0bd
00000260: 81ba a23c 8553 54be ea06 653e 1ffe b0be
00000270: 5e85 5cbd 7086 6d3e f003 de3d 09ad f73d
00000280: 1ab0 7e3e 0445 823e 5a14 793c ec66 b3bd
00000290: 9d2b a0bd 8efb 3cbe 668e 603f a903 9cbe
000002a0: 794d 913e 587e 9c3e 7d64 943e a987 8dbe
000002b0: ae42 993e 1ed9 28be b693 bb3d 74e9 abbd
000002c0: 21c9 b53d 69b6 5d3d 1fa9 c3be 671c 503e
000002d0: 1a67 ac3d 6cf4 a03e 9231 3f3e f649 e5be
000002e0: 9378 22bf 95ca 013f e70f f23c e6cb 233f
000002f0: ec66 ff3c fb23 fd3c 8d89 cbbe 0f6c 66be
00000300: 345e b6bd c572 013e 08ed 22bd 2f66 9ebd
00000310: 2fc4 113e 677f a3be b1bb d63e 4472 253e
00000320: f657 bd3d fbfb 8e3e 3d32 dfbe 6e52 803e
00000330: 2aa5 9b3e da1c d3bc 9fba 723d cba5 95bd
00000340: 1117 c73e ae06 d7be a8e4 b0be bf83 ac3e
00000350: 5d3c b43e c961 b33e 0589 30be fe10 383d
00000360: f2db 373e 4316 d0be 0ba2 753e f4c1 c8be
00000370: 3e91 d0bb 8af2 7bbe e78d e6be 3d7d 9d3e
00000380: 51cf 503e 8515 ac3c d869 adbe 624e 853e
00000390: 6e48 b2be faed 15be c0ec c23d 23d5 32be
000003a0: 3efe 8cbe 302e 9b3e 8322 813e 687a 2dbe
000003b0: 0c42 403e 189e e5be 8321 ba3d 927e f23d
000003c0: 6491 223e a077 d8be 7079 bb3a ba8b 983e
000003d0: 592d 9abe ecb3 cf3e 5dcb 993e 021b 153e
000003e0: 6905 f4be 9fa3 13bd d9f7 b2bd a143 313e
000003f0: 9b0c 1cbf 05f6 993d e057 90be db22 13be
-0.19861855 0.2213746 0.09736134 -0.13972215 0.23841271 -0.04408312 0.38125473 0.0601825
0.22432631 0.27408168 -0.7767665 0.5124644 0.091989845 0.08262663 -0.023287639 0.07035028
0.097970545 -0.17118672 -0.41483638 0.16159636 0.079479285 0.23798585 -0.06345396 -0.16971046
-0.044713516 -0.22546509 0.12625249 -0.026155718 -0.15408644 -0.14500098 -0.9420703 0.046657212
0.028018741 0.20068644 -0.19902346 0.1661251 0.07439958 -0.27815345 0.16619866 -0.26166877
0.09687973 0.23441388 0.27344036 0.3336877 0.43206805 -0.2349565 0.033581913 0.37308183
-0.1737235 0.29369453 -0.21085459 0.48023334 0.31254697 0.33435956 0.19528373 -0.57759583
-0.18911931 0.5208148 0.09116324 0.29149604 -0.3985777 0.17660485 -0.17434764 -0.2101079
-0.11685475 0.2732134 0.21224302 0.022791259 0.21779552 -0.11259796 0.30471808 -0.08065232
0.14008725 0.29505065 0.2504642 0.58787036 0.2631504 0.1327756 0.009638733 -0.33441168
0.12784335 0.32864594 -0.19874816 0.2468561 0.19703451 0.3650444 0.09994788 0.10898311
-0.10608341 -0.14254966 0.10560902 0.060394213 -0.1791721 0.14172342 -0.04382733 0.09462385
0.1904189 0.34102613 -0.16175444 0.11085643 0.053516462 -0.31508124 0.3510254 -0.20258781
-0.005054205 0.24901636 0.20324188 0.009879242 0.40805557 -0.19022165 0.009110106 0.24827397
-0.013332516 0.0076465737 -0.29702103 0.3508607 0.08790138 0.32840323 0.13172609 -0.05103615
-0.22525719 -0.0695519 0.12237127 0.34966454 0.023998179 0.23706704 -0.033085454 -0.15319027
0.05711901 0.14790146 0.27609742 0.23973092 0.3689371 -0.34161934 0.44115514 0.02069633
0.023835056 0.25472632 -0.24341492 0.046072543 0.30984515 -0.20410638 -0.074394986 0.22862831
0.04571508 -0.82606715 -0.55911237 0.046232566 0.060590085 0.37706465 0.0792395 -0.08630838
0.019864323 -0.20734985 0.22365919 -0.3456888 -0.053838126 0.23195815 0.10840595 0.12093551
0.24871865 0.2544328 0.015202606 -0.08759865 -0.078208186 -0.18455335 0.8771728 -0.30471542
0.2837942 0.30565143 0.28982916 -0.27642563 0.29933685 -0.16489074 0.09159033 -0.08394137
0.08876253 0.054129038 -0.38214967 0.20323335 0.084181026 0.3143648 0.18671253 -0.4478299
-0.6346523 0.5069974 0.029548598 0.63983 0.031177007 0.030900946 -0.3975338 -0.22502159
-0.089046866 0.12641437 -0.039776832 -0.07734334 0.14234994 -0.31933138 0.41940072 0.1615687
0.09245293 0.2792662 -0.43593016 0.2506289 0.30399448 -0.025770593 0.059260007 -0.07307013
0.38884786 -0.41997284 -0.3454945 0.33694264 0.35202304 0.35035542 -0.17239769 0.04493808
0.17954996 -0.40641984 0.23987596 -0.39210474 -0.0063649705 -0.2460424 -0.45030138 0.30759612
0.20391585 0.021006355 -0.33869815 0.26036364 -0.34820884 -0.14641562 0.09517813 -0.17464118
-0.2753772 0.30308676 0.25221643 -0.16941226 0.18775195 -0.44847178 0.09088423 0.118405476
0.15875775 -0.42278767 0.0014303159 0.29794103 -0.30112723 0.40566957 0.30037966 0.14561084
-0.47660378 -0.036044713 -0.087386794 0.17310955 -0.60956734 0.075176276 -0.28192043 -0.14368765

fc3.bias f4 [4]
00000000: 0b57 2c3f c340 fb3e 38f1 d93e 6398 de3e
0.6732032 0.49072847 0.42566848 0.43475637
